{"format": "graph-model", "generatedBy": "1.15.2", "convertedBy": "TensorFlow.js Converter v3.6.0", "signature": {"inputs": {"segment_ids:0": {"name": "segment_ids:0", "dtype": "DT_INT32", "tensorShape": {"dim": [{"size": "1"}, {"size": "128"}]}}, "input_mask:0": {"name": "input_mask:0", "dtype": "DT_INT32", "tensorShape": {"dim": [{"size": "1"}, {"size": "128"}]}}, "input_ids:0": {"name": "input_ids:0", "dtype": "DT_INT32", "tensorShape": {"dim": [{"size": "1"}, {"size": "128"}]}}}, "outputs": {"probabilities:0": {"name": "probabilities:0", "dtype": "DT_FLOAT", "tensorShape": {"dim": [{"size": "1"}, {"size": "2"}]}}}}, "modelTopology": {"node": [{"name": "bert/encoder/layer_23/intermediate/dense_1/Reshape/shape", "op": "Const", "attr": {"value": {"tensor": {"dtype": "DT_INT32", "tensorShape": {"dim": [{"size": "2"}]}}}, "dtype": {"type": "DT_INT32"}}}, {"name": "bert/encoder/layer_23/intermediate/dense/kernel", "op": "Const", "attr": {"value": {"tensor": {"dtype": "DT_FLOAT", "tensorShape": {"dim": [{"size": "128"}, {"size": "512"}]}}}, "dtype": {"type": "DT_FLOAT"}}}, {"name": "bert/encoder/layer_23/intermediate/dense/bias", "op": "Const", "attr": {"dtype": {"type": "DT_FLOAT"}, "value": {"tensor": {"dtype": "DT_FLOAT", "tensorShape": {"dim": [{"size": "512"}]}}}}}, {"name": "bert/encoder/layer_23/intermediate/dense_1/Reshape_1/shape", "op": "Const", "attr": {"value": {"tensor": {"dtype": "DT_INT32", "tensorShape": {"dim": [{"size": "3"}]}}}, "dtype": {"type": "DT_INT32"}}}, {"name": "bert/encoder/layer_23/output/dense_1/Reshape/shape", "op": "Const", "attr": {"dtype": {"type": "DT_INT32"}, "value": {"tensor": {"dtype": "DT_INT32", "tensorShape": {"dim": [{"size": "2"}]}}}}}, {"name": "bert/encoder/layer_23/output/dense/kernel", "op": "Const", "attr": {"value": {"tensor": {"dtype": "DT_FLOAT", "tensorShape": {"dim": [{"size": "512"}, {"size": "128"}]}}}, "dtype": {"type": "DT_FLOAT"}}}, {"name": "bert/encoder/layer_23/output/dense/bias", "op": "Const", "attr": {"value": {"tensor": {"dtype": "DT_FLOAT", "tensorShape": {"dim": [{"size": "128"}]}}}, "dtype": {"type": "DT_FLOAT"}}}, {"name": "bert/encoder/layer_23/output/dense_1/Reshape_1/shape", "op": "Const", "attr": {"value": {"tensor": {"dtype": "DT_INT32", "tensorShape": {"dim": [{"size": "3"}]}}}, "dtype": {"type": "DT_INT32"}}}, {"name": "bert/encoder/layer_23/ffn_layer_2/intermediate/dense_1/Reshape/shape", "op": "Const", "attr": {"value": {"tensor": {"dtype": "DT_INT32", "tensorShape": {"dim": [{"size": "2"}]}}}, "dtype": {"type": "DT_INT32"}}}, {"name": "bert/encoder/layer_23/ffn_layer_2/intermediate/dense/kernel", "op": "Const", "attr": {"value": {"tensor": {"dtype": "DT_FLOAT", "tensorShape": {"dim": [{"size": "128"}, {"size": "512"}]}}}, "dtype": {"type": "DT_FLOAT"}}}, {"name": "bert/encoder/layer_23/ffn_layer_2/intermediate/dense/bias", "op": "Const", "attr": {"value": {"tensor": {"dtype": "DT_FLOAT", "tensorShape": {"dim": [{"size": "512"}]}}}, "dtype": {"type": "DT_FLOAT"}}}, {"name": "bert/encoder/layer_23/ffn_layer_2/intermediate/dense_1/Reshape_1/shape", "op": "Const", "attr": {"value": {"tensor": {"dtype": "DT_INT32", "tensorShape": {"dim": [{"size": "3"}]}}}, "dtype": {"type": "DT_INT32"}}}, {"name": "bert/encoder/layer_23/ffn_layer_2/output/dense_1/Reshape/shape", "op": "Const", "attr": {"value": {"tensor": {"dtype": "DT_INT32", "tensorShape": {"dim": [{"size": "2"}]}}}, "dtype": {"type": "DT_INT32"}}}, {"name": "bert/encoder/layer_23/ffn_layer_2/output/dense/kernel", "op": "Const", "attr": {"value": {"tensor": {"dtype": "DT_FLOAT", "tensorShape": {"dim": [{"size": "512"}, {"size": "128"}]}}}, "dtype": {"type": "DT_FLOAT"}}}, {"name": "bert/encoder/layer_23/ffn_layer_2/output/dense/bias", "op": "Const", "attr": {"value": {"tensor": {"dtype": "DT_FLOAT", "tensorShape": {"dim": [{"size": "128"}]}}}, "dtype": {"type": "DT_FLOAT"}}}, {"name": "bert/encoder/layer_23/ffn_layer_2/output/dense_1/Reshape_1/shape", "op": "Const", "attr": {"value": {"tensor": {"dtype": "DT_INT32", "tensorShape": {"dim": [{"size": "3"}]}}}, "dtype": {"type": "DT_INT32"}}}, {"name": "bert/encoder/layer_23/ffn_layer_1/intermediate/dense_1/Reshape/shape", "op": "Const", "attr": {"dtype": {"type": "DT_INT32"}, "value": {"tensor": {"dtype": "DT_INT32", "tensorShape": {"dim": [{"size": "2"}]}}}}}, {"name": "bert/encoder/layer_23/ffn_layer_1/intermediate/dense/kernel", "op": "Const", "attr": {"value": {"tensor": {"dtype": "DT_FLOAT", "tensorShape": {"dim": [{"size": "128"}, {"size": "512"}]}}}, "dtype": {"type": "DT_FLOAT"}}}, {"name": "bert/encoder/layer_23/ffn_layer_1/intermediate/dense/bias", "op": "Const", "attr": {"value": {"tensor": {"dtype": "DT_FLOAT", "tensorShape": {"dim": [{"size": "512"}]}}}, "dtype": {"type": "DT_FLOAT"}}}, {"name": "bert/encoder/layer_23/ffn_layer_1/intermediate/dense_1/Reshape_1/shape", "op": "Const", "attr": {"value": {"tensor": {"dtype": "DT_INT32", "tensorShape": {"dim": [{"size": "3"}]}}}, "dtype": {"type": "DT_INT32"}}}, {"name": "bert/encoder/layer_23/ffn_layer_1/output/dense_1/Reshape/shape", "op": "Const", "attr": {"value": {"tensor": {"dtype": "DT_INT32", "tensorShape": {"dim": [{"size": "2"}]}}}, "dtype": {"type": "DT_INT32"}}}, {"name": "bert/encoder/layer_23/ffn_layer_1/output/dense/kernel", "op": "Const", "attr": {"value": {"tensor": {"dtype": "DT_FLOAT", "tensorShape": {"dim": [{"size": "512"}, {"size": "128"}]}}}, "dtype": {"type": "DT_FLOAT"}}}, {"name": "bert/encoder/layer_23/ffn_layer_1/output/dense/bias", "op": "Const", "attr": {"value": {"tensor": {"dtype": "DT_FLOAT", "tensorShape": {"dim": [{"size": "128"}]}}}, "dtype": {"type": "DT_FLOAT"}}}, {"name": "bert/encoder/layer_23/ffn_layer_1/output/dense_1/Reshape_1/shape", "op": "Const", "attr": {"dtype": {"type": "DT_INT32"}, "value": {"tensor": {"dtype": "DT_INT32", "tensorShape": {"dim": [{"size": "3"}]}}}}}, {"name": "bert/encoder/layer_23/ffn_layer_0/intermediate/dense_1/Reshape/shape", "op": "Const", "attr": {"value": {"tensor": {"dtype": "DT_INT32", "tensorShape": {"dim": [{"size": "2"}]}}}, "dtype": {"type": "DT_INT32"}}}, {"name": "bert/encoder/layer_23/ffn_layer_0/intermediate/dense/kernel", "op": "Const", "attr": {"value": {"tensor": {"dtype": "DT_FLOAT", "tensorShape": {"dim": [{"size": "128"}, {"size": "512"}]}}}, "dtype": {"type": "DT_FLOAT"}}}, {"name": "bert/encoder/layer_23/ffn_layer_0/intermediate/dense/bias", "op": "Const", "attr": {"value": {"tensor": {"dtype": "DT_FLOAT", "tensorShape": {"dim": [{"size": "512"}]}}}, "dtype": {"type": "DT_FLOAT"}}}, {"name": "bert/encoder/layer_23/ffn_layer_0/intermediate/dense_1/Reshape_1/shape", "op": "Const", "attr": {"value": {"tensor": {"dtype": "DT_INT32", "tensorShape": {"dim": [{"size": "3"}]}}}, "dtype": {"type": "DT_INT32"}}}, {"name": "bert/encoder/layer_23/ffn_layer_0/output/dense_1/Reshape/shape", "op": "Const", "attr": {"value": {"tensor": {"dtype": "DT_INT32", "tensorShape": {"dim": [{"size": "2"}]}}}, "dtype": {"type": "DT_INT32"}}}, {"name": "bert/encoder/layer_23/ffn_layer_0/output/dense/kernel", "op": "Const", "attr": {"value": {"tensor": {"dtype": "DT_FLOAT", "tensorShape": {"dim": [{"size": "512"}, {"size": "128"}]}}}, "dtype": {"type": "DT_FLOAT"}}}, {"name": "bert/encoder/layer_23/ffn_layer_0/output/dense/bias", "op": "Const", "attr": {"value": {"tensor": {"dtype": "DT_FLOAT", "tensorShape": {"dim": [{"size": "128"}]}}}, "dtype": {"type": "DT_FLOAT"}}}, {"name": "bert/encoder/layer_23/ffn_layer_0/output/dense_1/Reshape_1/shape", "op": "Const", "attr": {"value": {"tensor": {"dtype": "DT_INT32", "tensorShape": {"dim": [{"size": "3"}]}}}, "dtype": {"type": "DT_INT32"}}}, {"name": "bert/encoder/layer_23/bottleneck/input/FakeLayerNorm/beta", "op": "Const", "attr": {"value": {"tensor": {"dtype": "DT_FLOAT", "tensorShape": {"dim": [{"size": "128"}]}}}, "dtype": {"type": "DT_FLOAT"}}}, {"name": "bert/encoder/layer_23/attention/self/Mul/y", "op": "Const", "attr": {"value": {"tensor": {"dtype": "DT_FLOAT", "tensorShape": {}}}, "dtype": {"type": "DT_FLOAT"}}}, {"name": "bert/encoder/layer_23/attention/self/query_1/Reshape/shape", "op": "Const", "attr": {"dtype": {"type": "DT_INT32"}, "value": {"tensor": {"dtype": "DT_INT32", "tensorShape": {"dim": [{"size": "2"}]}}}}}, {"name": "bert/encoder/layer_23/attention/self/query/kernel", "op": "Const", "attr": {"value": {"tensor": {"dtype": "DT_FLOAT", "tensorShape": {"dim": [{"size": "128"}, {"size": "128"}]}}}, "dtype": {"type": "DT_FLOAT"}}}, {"name": "bert/encoder/layer_23/attention/self/query/bias", "op": "Const", "attr": {"value": {"tensor": {"dtype": "DT_FLOAT", "tensorShape": {"dim": [{"size": "128"}]}}}, "dtype": {"type": "DT_FLOAT"}}}, {"name": "bert/encoder/layer_23/attention/self/query_1/Reshape_1/shape", "op": "Const", "attr": {"value": {"tensor": {"dtype": "DT_INT32", "tensorShape": {"dim": [{"size": "4"}]}}}, "dtype": {"type": "DT_INT32"}}}, {"name": "bert/encoder/layer_23/attention/self/transpose/perm", "op": "Const", "attr": {"value": {"tensor": {"dtype": "DT_INT32", "tensorShape": {"dim": [{"size": "4"}]}}}, "dtype": {"type": "DT_INT32"}}}, {"name": "bert/encoder/layer_23/bottleneck/attention/dense_1/Reshape/shape", "op": "Const", "attr": {"value": {"tensor": {"dtype": "DT_INT32", "tensorShape": {"dim": [{"size": "2"}]}}}, "dtype": {"type": "DT_INT32"}}}, {"name": "bert/encoder/layer_23/bottleneck/attention/dense/kernel", "op": "Const", "attr": {"value": {"tensor": {"dtype": "DT_FLOAT", "tensorShape": {"dim": [{"size": "256"}, {"size": "128"}]}}}, "dtype": {"type": "DT_FLOAT"}}}, {"name": "bert/encoder/layer_23/bottleneck/attention/dense/bias", "op": "Const", "attr": {"value": {"tensor": {"dtype": "DT_FLOAT", "tensorShape": {"dim": [{"size": "128"}]}}}, "dtype": {"type": "DT_FLOAT"}}}, {"name": "bert/encoder/layer_23/bottleneck/attention/dense_1/Reshape_1/shape", "op": "Const", "attr": {"value": {"tensor": {"dtype": "DT_INT32", "tensorShape": {"dim": [{"size": "3"}]}}}, "dtype": {"type": "DT_INT32"}}}, {"name": "bert/encoder/layer_23/bottleneck/attention/FakeLayerNorm/gamma", "op": "Const", "attr": {"value": {"tensor": {"dtype": "DT_FLOAT", "tensorShape": {"dim": [{"size": "128"}]}}}, "dtype": {"type": "DT_FLOAT"}}}, {"name": "bert/encoder/layer_23/bottleneck/attention/FakeLayerNorm/beta", "op": "Const", "attr": {"value": {"tensor": {"dtype": "DT_FLOAT", "tensorShape": {"dim": [{"size": "128"}]}}}, "dtype": {"type": "DT_FLOAT"}}}, {"name": "bert/encoder/layer_23/attention/self/key_1/Reshape/shape", "op": "Const", "attr": {"value": {"tensor": {"dtype": "DT_INT32", "tensorShape": {"dim": [{"size": "2"}]}}}, "dtype": {"type": "DT_INT32"}}}, {"name": "bert/encoder/layer_23/attention/self/key/kernel", "op": "Const", "attr": {"value": {"tensor": {"dtype": "DT_FLOAT", "tensorShape": {"dim": [{"size": "128"}, {"size": "128"}]}}}, "dtype": {"type": "DT_FLOAT"}}}, {"name": "bert/encoder/layer_23/attention/self/key/bias", "op": "Const", "attr": {"dtype": {"type": "DT_FLOAT"}, "value": {"tensor": {"dtype": "DT_FLOAT", "tensorShape": {"dim": [{"size": "128"}]}}}}}, {"name": "bert/encoder/layer_23/attention/self/key_1/Reshape_1/shape", "op": "Const", "attr": {"value": {"tensor": {"dtype": "DT_INT32", "tensorShape": {"dim": [{"size": "4"}]}}}, "dtype": {"type": "DT_INT32"}}}, {"name": "bert/encoder/layer_23/attention/self/transpose_1/perm", "op": "Const", "attr": {"value": {"tensor": {"dtype": "DT_INT32", "tensorShape": {"dim": [{"size": "4"}]}}}, "dtype": {"type": "DT_INT32"}}}, {"name": "bert/encoder/layer_23/attention/self/sub/x", "op": "Const", "attr": {"value": {"tensor": {"dtype": "DT_FLOAT", "tensorShape": {}}}, "dtype": {"type": "DT_FLOAT"}}}, {"name": "bert/encoder/layer_23/attention/self/ExpandDims/dim", "op": "Const", "attr": {"value": {"tensor": {"dtype": "DT_INT32", "tensorShape": {"dim": [{"size": "1"}]}}}, "dtype": {"type": "DT_INT32"}}}, {"name": "bert/encoder/layer_23/attention/self/mul_1/y", "op": "Const", "attr": {"value": {"tensor": {"dtype": "DT_FLOAT", "tensorShape": {}}}, "dtype": {"type": "DT_FLOAT"}}}, {"name": "bert/encoder/layer_23/attention/self/value_1/Reshape/shape", "op": "Const", "attr": {"value": {"tensor": {"dtype": "DT_INT32", "tensorShape": {"dim": [{"size": "2"}]}}}, "dtype": {"type": "DT_INT32"}}}, {"name": "bert/encoder/layer_23/attention/self/value/kernel", "op": "Const", "attr": {"value": {"tensor": {"dtype": "DT_FLOAT", "tensorShape": {"dim": [{"size": "256"}, {"size": "128"}]}}}, "dtype": {"type": "DT_FLOAT"}}}, {"name": "bert/encoder/layer_23/attention/self/value/bias", "op": "Const", "attr": {"value": {"tensor": {"dtype": "DT_FLOAT", "tensorShape": {"dim": [{"size": "128"}]}}}, "dtype": {"type": "DT_FLOAT"}}}, {"name": "bert/encoder/layer_23/attention/self/value_1/Reshape_1/shape", "op": "Const", "attr": {"value": {"tensor": {"dtype": "DT_INT32", "tensorShape": {"dim": [{"size": "4"}]}}}, "dtype": {"type": "DT_INT32"}}}, {"name": "bert/encoder/layer_23/attention/self/transpose_2/perm", "op": "Const", "attr": {"value": {"tensor": {"dtype": "DT_INT32", "tensorShape": {"dim": [{"size": "4"}]}}}, "dtype": {"type": "DT_INT32"}}}, {"name": "bert/encoder/layer_23/attention/self/transpose_3/perm", "op": "Const", "attr": {"value": {"tensor": {"dtype": "DT_INT32", "tensorShape": {"dim": [{"size": "4"}]}}}, "dtype": {"type": "DT_INT32"}}}, {"name": "bert/encoder/layer_23/attention/output/dense_1/Reshape/shape", "op": "Const", "attr": {"value": {"tensor": {"dtype": "DT_INT32", "tensorShape": {"dim": [{"size": "2"}]}}}, "dtype": {"type": "DT_INT32"}}}, {"name": "bert/encoder/layer_23/attention/output/dense/kernel", "op": "Const", "attr": {"dtype": {"type": "DT_FLOAT"}, "value": {"tensor": {"dtype": "DT_FLOAT", "tensorShape": {"dim": [{"size": "128"}, {"size": "128"}]}}}}}, {"name": "bert/encoder/layer_23/attention/output/dense/bias", "op": "Const", "attr": {"value": {"tensor": {"dtype": "DT_FLOAT", "tensorShape": {"dim": [{"size": "128"}]}}}, "dtype": {"type": "DT_FLOAT"}}}, {"name": "bert/encoder/layer_23/attention/output/dense_1/Reshape_1/shape", "op": "Const", "attr": {"value": {"tensor": {"dtype": "DT_INT32", "tensorShape": {"dim": [{"size": "3"}]}}}, "dtype": {"type": "DT_INT32"}}}, {"name": "bert/encoder/layer_23/bottleneck/input/dense_1/Reshape/shape", "op": "Const", "attr": {"value": {"tensor": {"dtype": "DT_INT32", "tensorShape": {"dim": [{"size": "2"}]}}}, "dtype": {"type": "DT_INT32"}}}, {"name": "bert/encoder/layer_23/bottleneck/input/dense/kernel", "op": "Const", "attr": {"value": {"tensor": {"dtype": "DT_FLOAT", "tensorShape": {"dim": [{"size": "256"}, {"size": "128"}]}}}, "dtype": {"type": "DT_FLOAT"}}}, {"name": "bert/encoder/layer_23/bottleneck/input/dense/bias", "op": "Const", "attr": {"value": {"tensor": {"dtype": "DT_FLOAT", "tensorShape": {"dim": [{"size": "128"}]}}}, "dtype": {"type": "DT_FLOAT"}}}, {"name": "bert/encoder/layer_23/bottleneck/input/dense_1/Reshape_1/shape", "op": "Const", "attr": {"value": {"tensor": {"dtype": "DT_INT32", "tensorShape": {"dim": [{"size": "3"}]}}}, "dtype": {"type": "DT_INT32"}}}, {"name": "bert/encoder/layer_23/bottleneck/input/FakeLayerNorm/gamma", "op": "Const", "attr": {"value": {"tensor": {"dtype": "DT_FLOAT", "tensorShape": {"dim": [{"size": "128"}]}}}, "dtype": {"type": "DT_FLOAT"}}}, {"name": "bert/encoder/layer_23/attention/output/FakeLayerNorm/gamma", "op": "Const", "attr": {"value": {"tensor": {"dtype": "DT_FLOAT", "tensorShape": {"dim": [{"size": "128"}]}}}, "dtype": {"type": "DT_FLOAT"}}}, {"name": "bert/encoder/layer_23/attention/output/FakeLayerNorm/beta", "op": "Const", "attr": {"value": {"tensor": {"dtype": "DT_FLOAT", "tensorShape": {"dim": [{"size": "128"}]}}}, "dtype": {"type": "DT_FLOAT"}}}, {"name": "bert/encoder/layer_23/ffn_layer_0/output/FakeLayerNorm/gamma", "op": "Const", "attr": {"dtype": {"type": "DT_FLOAT"}, "value": {"tensor": {"dtype": "DT_FLOAT", "tensorShape": {"dim": [{"size": "128"}]}}}}}, {"name": "bert/encoder/layer_23/ffn_layer_0/output/FakeLayerNorm/beta", "op": "Const", "attr": {"value": {"tensor": {"dtype": "DT_FLOAT", "tensorShape": {"dim": [{"size": "128"}]}}}, "dtype": {"type": "DT_FLOAT"}}}, {"name": "bert/encoder/layer_23/ffn_layer_1/output/FakeLayerNorm/gamma", "op": "Const", "attr": {"value": {"tensor": {"dtype": "DT_FLOAT", "tensorShape": {"dim": [{"size": "128"}]}}}, "dtype": {"type": "DT_FLOAT"}}}, {"name": "bert/encoder/layer_23/ffn_layer_1/output/FakeLayerNorm/beta", "op": "Const", "attr": {"value": {"tensor": {"dtype": "DT_FLOAT", "tensorShape": {"dim": [{"size": "128"}]}}}, "dtype": {"type": "DT_FLOAT"}}}, {"name": "bert/encoder/layer_23/ffn_layer_2/output/FakeLayerNorm/gamma", "op": "Const", "attr": {"dtype": {"type": "DT_FLOAT"}, "value": {"tensor": {"dtype": "DT_FLOAT", "tensorShape": {"dim": [{"size": "128"}]}}}}}, {"name": "bert/encoder/layer_23/ffn_layer_2/output/FakeLayerNorm/beta", "op": "Const", "attr": {"value": {"tensor": {"dtype": "DT_FLOAT", "tensorShape": {"dim": [{"size": "128"}]}}}, "dtype": {"type": "DT_FLOAT"}}}, {"name": "bert/encoder/layer_23/output/FakeLayerNorm/gamma", "op": "Const", "attr": {"value": {"tensor": {"dtype": "DT_FLOAT", "tensorShape": {"dim": [{"size": "128"}]}}}, "dtype": {"type": "DT_FLOAT"}}}, {"name": "bert/encoder/layer_23/output/FakeLayerNorm/beta", "op": "Const", "attr": {"value": {"tensor": {"dtype": "DT_FLOAT", "tensorShape": {"dim": [{"size": "128"}]}}}, "dtype": {"type": "DT_FLOAT"}}}, {"name": "bert/encoder/layer_23/output/bottleneck/dense_1/Reshape/shape", "op": "Const", "attr": {"value": {"tensor": {"dtype": "DT_INT32", "tensorShape": {"dim": [{"size": "2"}]}}}, "dtype": {"type": "DT_INT32"}}}, {"name": "bert/encoder/layer_23/output/bottleneck/dense/kernel", "op": "Const", "attr": {"value": {"tensor": {"dtype": "DT_FLOAT", "tensorShape": {"dim": [{"size": "128"}, {"size": "256"}]}}}, "dtype": {"type": "DT_FLOAT"}}}, {"name": "bert/encoder/layer_23/output/bottleneck/dense/bias", "op": "Const", "attr": {"value": {"tensor": {"dtype": "DT_FLOAT", "tensorShape": {"dim": [{"size": "256"}]}}}, "dtype": {"type": "DT_FLOAT"}}}, {"name": "bert/encoder/layer_23/output/bottleneck/dense_1/Reshape_1/shape", "op": "Const", "attr": {"value": {"tensor": {"dtype": "DT_INT32", "tensorShape": {"dim": [{"size": "3"}]}}}, "dtype": {"type": "DT_INT32"}}}, {"name": "bert/encoder/layer_22/intermediate/dense_1/Reshape/shape", "op": "Const", "attr": {"value": {"tensor": {"dtype": "DT_INT32", "tensorShape": {"dim": [{"size": "2"}]}}}, "dtype": {"type": "DT_INT32"}}}, {"name": "bert/encoder/layer_22/intermediate/dense/kernel", "op": "Const", "attr": {"value": {"tensor": {"dtype": "DT_FLOAT", "tensorShape": {"dim": [{"size": "128"}, {"size": "512"}]}}}, "dtype": {"type": "DT_FLOAT"}}}, {"name": "bert/encoder/layer_22/intermediate/dense/bias", "op": "Const", "attr": {"value": {"tensor": {"dtype": "DT_FLOAT", "tensorShape": {"dim": [{"size": "512"}]}}}, "dtype": {"type": "DT_FLOAT"}}}, {"name": "bert/encoder/layer_22/intermediate/dense_1/Reshape_1/shape", "op": "Const", "attr": {"value": {"tensor": {"dtype": "DT_INT32", "tensorShape": {"dim": [{"size": "3"}]}}}, "dtype": {"type": "DT_INT32"}}}, {"name": "bert/encoder/layer_22/output/dense_1/Reshape/shape", "op": "Const", "attr": {"value": {"tensor": {"dtype": "DT_INT32", "tensorShape": {"dim": [{"size": "2"}]}}}, "dtype": {"type": "DT_INT32"}}}, {"name": "bert/encoder/layer_22/output/dense/kernel", "op": "Const", "attr": {"value": {"tensor": {"dtype": "DT_FLOAT", "tensorShape": {"dim": [{"size": "512"}, {"size": "128"}]}}}, "dtype": {"type": "DT_FLOAT"}}}, {"name": "bert/encoder/layer_22/output/dense/bias", "op": "Const", "attr": {"value": {"tensor": {"dtype": "DT_FLOAT", "tensorShape": {"dim": [{"size": "128"}]}}}, "dtype": {"type": "DT_FLOAT"}}}, {"name": "bert/encoder/layer_22/output/dense_1/Reshape_1/shape", "op": "Const", "attr": {"dtype": {"type": "DT_INT32"}, "value": {"tensor": {"dtype": "DT_INT32", "tensorShape": {"dim": [{"size": "3"}]}}}}}, {"name": "bert/encoder/layer_22/ffn_layer_2/intermediate/dense_1/Reshape/shape", "op": "Const", "attr": {"value": {"tensor": {"dtype": "DT_INT32", "tensorShape": {"dim": [{"size": "2"}]}}}, "dtype": {"type": "DT_INT32"}}}, {"name": "bert/encoder/layer_22/ffn_layer_2/intermediate/dense/kernel", "op": "Const", "attr": {"value": {"tensor": {"dtype": "DT_FLOAT", "tensorShape": {"dim": [{"size": "128"}, {"size": "512"}]}}}, "dtype": {"type": "DT_FLOAT"}}}, {"name": "bert/encoder/layer_22/ffn_layer_2/intermediate/dense/bias", "op": "Const", "attr": {"value": {"tensor": {"dtype": "DT_FLOAT", "tensorShape": {"dim": [{"size": "512"}]}}}, "dtype": {"type": "DT_FLOAT"}}}, {"name": "bert/encoder/layer_22/ffn_layer_2/intermediate/dense_1/Reshape_1/shape", "op": "Const", "attr": {"value": {"tensor": {"dtype": "DT_INT32", "tensorShape": {"dim": [{"size": "3"}]}}}, "dtype": {"type": "DT_INT32"}}}, {"name": "bert/encoder/layer_22/ffn_layer_2/output/dense_1/Reshape/shape", "op": "Const", "attr": {"value": {"tensor": {"dtype": "DT_INT32", "tensorShape": {"dim": [{"size": "2"}]}}}, "dtype": {"type": "DT_INT32"}}}, {"name": "bert/encoder/layer_22/ffn_layer_2/output/dense/kernel", "op": "Const", "attr": {"value": {"tensor": {"dtype": "DT_FLOAT", "tensorShape": {"dim": [{"size": "512"}, {"size": "128"}]}}}, "dtype": {"type": "DT_FLOAT"}}}, {"name": "bert/encoder/layer_22/ffn_layer_2/output/dense/bias", "op": "Const", "attr": {"dtype": {"type": "DT_FLOAT"}, "value": {"tensor": {"dtype": "DT_FLOAT", "tensorShape": {"dim": [{"size": "128"}]}}}}}, {"name": "bert/encoder/layer_22/ffn_layer_2/output/dense_1/Reshape_1/shape", "op": "Const", "attr": {"value": {"tensor": {"dtype": "DT_INT32", "tensorShape": {"dim": [{"size": "3"}]}}}, "dtype": {"type": "DT_INT32"}}}, {"name": "bert/encoder/layer_22/ffn_layer_1/intermediate/dense_1/Reshape/shape", "op": "Const", "attr": {"value": {"tensor": {"dtype": "DT_INT32", "tensorShape": {"dim": [{"size": "2"}]}}}, "dtype": {"type": "DT_INT32"}}}, {"name": "bert/encoder/layer_22/ffn_layer_1/intermediate/dense/kernel", "op": "Const", "attr": {"value": {"tensor": {"dtype": "DT_FLOAT", "tensorShape": {"dim": [{"size": "128"}, {"size": "512"}]}}}, "dtype": {"type": "DT_FLOAT"}}}, {"name": "bert/encoder/layer_22/ffn_layer_1/intermediate/dense/bias", "op": "Const", "attr": {"value": {"tensor": {"dtype": "DT_FLOAT", "tensorShape": {"dim": [{"size": "512"}]}}}, "dtype": {"type": "DT_FLOAT"}}}, {"name": "bert/encoder/layer_22/ffn_layer_1/intermediate/dense_1/Reshape_1/shape", "op": "Const", "attr": {"value": {"tensor": {"dtype": "DT_INT32", "tensorShape": {"dim": [{"size": "3"}]}}}, "dtype": {"type": "DT_INT32"}}}, {"name": "bert/encoder/layer_22/ffn_layer_1/output/dense_1/Reshape/shape", "op": "Const", "attr": {"value": {"tensor": {"dtype": "DT_INT32", "tensorShape": {"dim": [{"size": "2"}]}}}, "dtype": {"type": "DT_INT32"}}}, {"name": "bert/encoder/layer_22/ffn_layer_1/output/dense/kernel", "op": "Const", "attr": {"dtype": {"type": "DT_FLOAT"}, "value": {"tensor": {"dtype": "DT_FLOAT", "tensorShape": {"dim": [{"size": "512"}, {"size": "128"}]}}}}}, {"name": "bert/encoder/layer_22/ffn_layer_1/output/dense/bias", "op": "Const", "attr": {"value": {"tensor": {"dtype": "DT_FLOAT", "tensorShape": {"dim": [{"size": "128"}]}}}, "dtype": {"type": "DT_FLOAT"}}}, {"name": "bert/encoder/layer_22/ffn_layer_1/output/dense_1/Reshape_1/shape", "op": "Const", "attr": {"value": {"tensor": {"dtype": "DT_INT32", "tensorShape": {"dim": [{"size": "3"}]}}}, "dtype": {"type": "DT_INT32"}}}, {"name": "bert/encoder/layer_22/ffn_layer_0/intermediate/dense_1/Reshape/shape", "op": "Const", "attr": {"value": {"tensor": {"dtype": "DT_INT32", "tensorShape": {"dim": [{"size": "2"}]}}}, "dtype": {"type": "DT_INT32"}}}, {"name": "bert/encoder/layer_22/ffn_layer_0/intermediate/dense/kernel", "op": "Const", "attr": {"dtype": {"type": "DT_FLOAT"}, "value": {"tensor": {"dtype": "DT_FLOAT", "tensorShape": {"dim": [{"size": "128"}, {"size": "512"}]}}}}}, {"name": "bert/encoder/layer_22/ffn_layer_0/intermediate/dense/bias", "op": "Const", "attr": {"value": {"tensor": {"dtype": "DT_FLOAT", "tensorShape": {"dim": [{"size": "512"}]}}}, "dtype": {"type": "DT_FLOAT"}}}, {"name": "bert/encoder/layer_22/ffn_layer_0/intermediate/dense_1/Reshape_1/shape", "op": "Const", "attr": {"value": {"tensor": {"dtype": "DT_INT32", "tensorShape": {"dim": [{"size": "3"}]}}}, "dtype": {"type": "DT_INT32"}}}, {"name": "bert/encoder/layer_22/ffn_layer_0/output/dense_1/Reshape/shape", "op": "Const", "attr": {"value": {"tensor": {"dtype": "DT_INT32", "tensorShape": {"dim": [{"size": "2"}]}}}, "dtype": {"type": "DT_INT32"}}}, {"name": "bert/encoder/layer_22/ffn_layer_0/output/dense/kernel", "op": "Const", "attr": {"value": {"tensor": {"dtype": "DT_FLOAT", "tensorShape": {"dim": [{"size": "512"}, {"size": "128"}]}}}, "dtype": {"type": "DT_FLOAT"}}}, {"name": "bert/encoder/layer_22/ffn_layer_0/output/dense/bias", "op": "Const", "attr": {"dtype": {"type": "DT_FLOAT"}, "value": {"tensor": {"dtype": "DT_FLOAT", "tensorShape": {"dim": [{"size": "128"}]}}}}}, {"name": "bert/encoder/layer_22/ffn_layer_0/output/dense_1/Reshape_1/shape", "op": "Const", "attr": {"dtype": {"type": "DT_INT32"}, "value": {"tensor": {"dtype": "DT_INT32", "tensorShape": {"dim": [{"size": "3"}]}}}}}, {"name": "bert/encoder/layer_22/bottleneck/input/FakeLayerNorm/beta", "op": "Const", "attr": {"value": {"tensor": {"dtype": "DT_FLOAT", "tensorShape": {"dim": [{"size": "128"}]}}}, "dtype": {"type": "DT_FLOAT"}}}, {"name": "bert/encoder/layer_22/attention/self/Mul/y", "op": "Const", "attr": {"dtype": {"type": "DT_FLOAT"}, "value": {"tensor": {"dtype": "DT_FLOAT", "tensorShape": {}}}}}, {"name": "bert/encoder/layer_22/attention/self/query_1/Reshape/shape", "op": "Const", "attr": {"value": {"tensor": {"dtype": "DT_INT32", "tensorShape": {"dim": [{"size": "2"}]}}}, "dtype": {"type": "DT_INT32"}}}, {"name": "bert/encoder/layer_22/attention/self/query/kernel", "op": "Const", "attr": {"value": {"tensor": {"dtype": "DT_FLOAT", "tensorShape": {"dim": [{"size": "128"}, {"size": "128"}]}}}, "dtype": {"type": "DT_FLOAT"}}}, {"name": "bert/encoder/layer_22/attention/self/query/bias", "op": "Const", "attr": {"value": {"tensor": {"dtype": "DT_FLOAT", "tensorShape": {"dim": [{"size": "128"}]}}}, "dtype": {"type": "DT_FLOAT"}}}, {"name": "bert/encoder/layer_22/attention/self/query_1/Reshape_1/shape", "op": "Const", "attr": {"value": {"tensor": {"dtype": "DT_INT32", "tensorShape": {"dim": [{"size": "4"}]}}}, "dtype": {"type": "DT_INT32"}}}, {"name": "bert/encoder/layer_22/attention/self/transpose/perm", "op": "Const", "attr": {"dtype": {"type": "DT_INT32"}, "value": {"tensor": {"dtype": "DT_INT32", "tensorShape": {"dim": [{"size": "4"}]}}}}}, {"name": "bert/encoder/layer_22/bottleneck/attention/dense_1/Reshape/shape", "op": "Const", "attr": {"value": {"tensor": {"dtype": "DT_INT32", "tensorShape": {"dim": [{"size": "2"}]}}}, "dtype": {"type": "DT_INT32"}}}, {"name": "bert/encoder/layer_22/bottleneck/attention/dense/kernel", "op": "Const", "attr": {"value": {"tensor": {"dtype": "DT_FLOAT", "tensorShape": {"dim": [{"size": "256"}, {"size": "128"}]}}}, "dtype": {"type": "DT_FLOAT"}}}, {"name": "bert/encoder/layer_22/bottleneck/attention/dense/bias", "op": "Const", "attr": {"value": {"tensor": {"dtype": "DT_FLOAT", "tensorShape": {"dim": [{"size": "128"}]}}}, "dtype": {"type": "DT_FLOAT"}}}, {"name": "bert/encoder/layer_22/bottleneck/attention/dense_1/Reshape_1/shape", "op": "Const", "attr": {"dtype": {"type": "DT_INT32"}, "value": {"tensor": {"dtype": "DT_INT32", "tensorShape": {"dim": [{"size": "3"}]}}}}}, {"name": "bert/encoder/layer_22/bottleneck/attention/FakeLayerNorm/gamma", "op": "Const", "attr": {"value": {"tensor": {"dtype": "DT_FLOAT", "tensorShape": {"dim": [{"size": "128"}]}}}, "dtype": {"type": "DT_FLOAT"}}}, {"name": "bert/encoder/layer_22/bottleneck/attention/FakeLayerNorm/beta", "op": "Const", "attr": {"dtype": {"type": "DT_FLOAT"}, "value": {"tensor": {"dtype": "DT_FLOAT", "tensorShape": {"dim": [{"size": "128"}]}}}}}, {"name": "bert/encoder/layer_22/attention/self/key_1/Reshape/shape", "op": "Const", "attr": {"value": {"tensor": {"dtype": "DT_INT32", "tensorShape": {"dim": [{"size": "2"}]}}}, "dtype": {"type": "DT_INT32"}}}, {"name": "bert/encoder/layer_22/attention/self/key/kernel", "op": "Const", "attr": {"value": {"tensor": {"dtype": "DT_FLOAT", "tensorShape": {"dim": [{"size": "128"}, {"size": "128"}]}}}, "dtype": {"type": "DT_FLOAT"}}}, {"name": "bert/encoder/layer_22/attention/self/key/bias", "op": "Const", "attr": {"value": {"tensor": {"dtype": "DT_FLOAT", "tensorShape": {"dim": [{"size": "128"}]}}}, "dtype": {"type": "DT_FLOAT"}}}, {"name": "bert/encoder/layer_22/attention/self/key_1/Reshape_1/shape", "op": "Const", "attr": {"value": {"tensor": {"dtype": "DT_INT32", "tensorShape": {"dim": [{"size": "4"}]}}}, "dtype": {"type": "DT_INT32"}}}, {"name": "bert/encoder/layer_22/attention/self/transpose_1/perm", "op": "Const", "attr": {"dtype": {"type": "DT_INT32"}, "value": {"tensor": {"dtype": "DT_INT32", "tensorShape": {"dim": [{"size": "4"}]}}}}}, {"name": "bert/encoder/layer_22/attention/self/sub/x", "op": "Const", "attr": {"value": {"tensor": {"dtype": "DT_FLOAT", "tensorShape": {}}}, "dtype": {"type": "DT_FLOAT"}}}, {"name": "bert/encoder/layer_22/attention/self/ExpandDims/dim", "op": "Const", "attr": {"value": {"tensor": {"dtype": "DT_INT32", "tensorShape": {"dim": [{"size": "1"}]}}}, "dtype": {"type": "DT_INT32"}}}, {"name": "bert/encoder/layer_22/attention/self/mul_1/y", "op": "Const", "attr": {"dtype": {"type": "DT_FLOAT"}, "value": {"tensor": {"dtype": "DT_FLOAT", "tensorShape": {}}}}}, {"name": "bert/encoder/layer_22/attention/self/value_1/Reshape/shape", "op": "Const", "attr": {"value": {"tensor": {"dtype": "DT_INT32", "tensorShape": {"dim": [{"size": "2"}]}}}, "dtype": {"type": "DT_INT32"}}}, {"name": "bert/encoder/layer_22/attention/self/value/kernel", "op": "Const", "attr": {"value": {"tensor": {"dtype": "DT_FLOAT", "tensorShape": {"dim": [{"size": "256"}, {"size": "128"}]}}}, "dtype": {"type": "DT_FLOAT"}}}, {"name": "bert/encoder/layer_22/attention/self/value/bias", "op": "Const", "attr": {"value": {"tensor": {"dtype": "DT_FLOAT", "tensorShape": {"dim": [{"size": "128"}]}}}, "dtype": {"type": "DT_FLOAT"}}}, {"name": "bert/encoder/layer_22/attention/self/value_1/Reshape_1/shape", "op": "Const", "attr": {"value": {"tensor": {"dtype": "DT_INT32", "tensorShape": {"dim": [{"size": "4"}]}}}, "dtype": {"type": "DT_INT32"}}}, {"name": "bert/encoder/layer_22/attention/self/transpose_2/perm", "op": "Const", "attr": {"value": {"tensor": {"dtype": "DT_INT32", "tensorShape": {"dim": [{"size": "4"}]}}}, "dtype": {"type": "DT_INT32"}}}, {"name": "bert/encoder/layer_22/attention/self/transpose_3/perm", "op": "Const", "attr": {"value": {"tensor": {"dtype": "DT_INT32", "tensorShape": {"dim": [{"size": "4"}]}}}, "dtype": {"type": "DT_INT32"}}}, {"name": "bert/encoder/layer_22/attention/output/dense_1/Reshape/shape", "op": "Const", "attr": {"value": {"tensor": {"dtype": "DT_INT32", "tensorShape": {"dim": [{"size": "2"}]}}}, "dtype": {"type": "DT_INT32"}}}, {"name": "bert/encoder/layer_22/attention/output/dense/kernel", "op": "Const", "attr": {"value": {"tensor": {"dtype": "DT_FLOAT", "tensorShape": {"dim": [{"size": "128"}, {"size": "128"}]}}}, "dtype": {"type": "DT_FLOAT"}}}, {"name": "bert/encoder/layer_22/attention/output/dense/bias", "op": "Const", "attr": {"value": {"tensor": {"dtype": "DT_FLOAT", "tensorShape": {"dim": [{"size": "128"}]}}}, "dtype": {"type": "DT_FLOAT"}}}, {"name": "bert/encoder/layer_22/attention/output/dense_1/Reshape_1/shape", "op": "Const", "attr": {"value": {"tensor": {"dtype": "DT_INT32", "tensorShape": {"dim": [{"size": "3"}]}}}, "dtype": {"type": "DT_INT32"}}}, {"name": "bert/encoder/layer_22/bottleneck/input/dense_1/Reshape/shape", "op": "Const", "attr": {"dtype": {"type": "DT_INT32"}, "value": {"tensor": {"dtype": "DT_INT32", "tensorShape": {"dim": [{"size": "2"}]}}}}}, {"name": "bert/encoder/layer_22/bottleneck/input/dense/kernel", "op": "Const", "attr": {"value": {"tensor": {"dtype": "DT_FLOAT", "tensorShape": {"dim": [{"size": "256"}, {"size": "128"}]}}}, "dtype": {"type": "DT_FLOAT"}}}, {"name": "bert/encoder/layer_22/bottleneck/input/dense/bias", "op": "Const", "attr": {"dtype": {"type": "DT_FLOAT"}, "value": {"tensor": {"dtype": "DT_FLOAT", "tensorShape": {"dim": [{"size": "128"}]}}}}}, {"name": "bert/encoder/layer_22/bottleneck/input/dense_1/Reshape_1/shape", "op": "Const", "attr": {"value": {"tensor": {"dtype": "DT_INT32", "tensorShape": {"dim": [{"size": "3"}]}}}, "dtype": {"type": "DT_INT32"}}}, {"name": "bert/encoder/layer_22/bottleneck/input/FakeLayerNorm/gamma", "op": "Const", "attr": {"value": {"tensor": {"dtype": "DT_FLOAT", "tensorShape": {"dim": [{"size": "128"}]}}}, "dtype": {"type": "DT_FLOAT"}}}, {"name": "bert/encoder/layer_22/attention/output/FakeLayerNorm/gamma", "op": "Const", "attr": {"value": {"tensor": {"dtype": "DT_FLOAT", "tensorShape": {"dim": [{"size": "128"}]}}}, "dtype": {"type": "DT_FLOAT"}}}, {"name": "bert/encoder/layer_22/attention/output/FakeLayerNorm/beta", "op": "Const", "attr": {"value": {"tensor": {"dtype": "DT_FLOAT", "tensorShape": {"dim": [{"size": "128"}]}}}, "dtype": {"type": "DT_FLOAT"}}}, {"name": "bert/encoder/layer_22/ffn_layer_0/output/FakeLayerNorm/gamma", "op": "Const", "attr": {"value": {"tensor": {"dtype": "DT_FLOAT", "tensorShape": {"dim": [{"size": "128"}]}}}, "dtype": {"type": "DT_FLOAT"}}}, {"name": "bert/encoder/layer_22/ffn_layer_0/output/FakeLayerNorm/beta", "op": "Const", "attr": {"value": {"tensor": {"dtype": "DT_FLOAT", "tensorShape": {"dim": [{"size": "128"}]}}}, "dtype": {"type": "DT_FLOAT"}}}, {"name": "bert/encoder/layer_22/ffn_layer_1/output/FakeLayerNorm/gamma", "op": "Const", "attr": {"dtype": {"type": "DT_FLOAT"}, "value": {"tensor": {"dtype": "DT_FLOAT", "tensorShape": {"dim": [{"size": "128"}]}}}}}, {"name": "bert/encoder/layer_22/ffn_layer_1/output/FakeLayerNorm/beta", "op": "Const", "attr": {"value": {"tensor": {"dtype": "DT_FLOAT", "tensorShape": {"dim": [{"size": "128"}]}}}, "dtype": {"type": "DT_FLOAT"}}}, {"name": "bert/encoder/layer_22/ffn_layer_2/output/FakeLayerNorm/gamma", "op": "Const", "attr": {"value": {"tensor": {"dtype": "DT_FLOAT", "tensorShape": {"dim": [{"size": "128"}]}}}, "dtype": {"type": "DT_FLOAT"}}}, {"name": "bert/encoder/layer_22/ffn_layer_2/output/FakeLayerNorm/beta", "op": "Const", "attr": {"value": {"tensor": {"dtype": "DT_FLOAT", "tensorShape": {"dim": [{"size": "128"}]}}}, "dtype": {"type": "DT_FLOAT"}}}, {"name": "bert/encoder/layer_22/output/FakeLayerNorm/gamma", "op": "Const", "attr": {"value": {"tensor": {"dtype": "DT_FLOAT", "tensorShape": {"dim": [{"size": "128"}]}}}, "dtype": {"type": "DT_FLOAT"}}}, {"name": "bert/encoder/layer_22/output/FakeLayerNorm/beta", "op": "Const", "attr": {"dtype": {"type": "DT_FLOAT"}, "value": {"tensor": {"dtype": "DT_FLOAT", "tensorShape": {"dim": [{"size": "128"}]}}}}}, {"name": "bert/encoder/layer_22/output/bottleneck/dense_1/Reshape/shape", "op": "Const", "attr": {"value": {"tensor": {"dtype": "DT_INT32", "tensorShape": {"dim": [{"size": "2"}]}}}, "dtype": {"type": "DT_INT32"}}}, {"name": "bert/encoder/layer_22/output/bottleneck/dense/kernel", "op": "Const", "attr": {"value": {"tensor": {"dtype": "DT_FLOAT", "tensorShape": {"dim": [{"size": "128"}, {"size": "256"}]}}}, "dtype": {"type": "DT_FLOAT"}}}, {"name": "bert/encoder/layer_22/output/bottleneck/dense/bias", "op": "Const", "attr": {"value": {"tensor": {"dtype": "DT_FLOAT", "tensorShape": {"dim": [{"size": "256"}]}}}, "dtype": {"type": "DT_FLOAT"}}}, {"name": "bert/encoder/layer_22/output/bottleneck/dense_1/Reshape_1/shape", "op": "Const", "attr": {"value": {"tensor": {"dtype": "DT_INT32", "tensorShape": {"dim": [{"size": "3"}]}}}, "dtype": {"type": "DT_INT32"}}}, {"name": "bert/encoder/layer_21/intermediate/dense_1/Reshape/shape", "op": "Const", "attr": {"value": {"tensor": {"dtype": "DT_INT32", "tensorShape": {"dim": [{"size": "2"}]}}}, "dtype": {"type": "DT_INT32"}}}, {"name": "bert/encoder/layer_21/intermediate/dense/kernel", "op": "Const", "attr": {"value": {"tensor": {"dtype": "DT_FLOAT", "tensorShape": {"dim": [{"size": "128"}, {"size": "512"}]}}}, "dtype": {"type": "DT_FLOAT"}}}, {"name": "bert/encoder/layer_21/intermediate/dense/bias", "op": "Const", "attr": {"dtype": {"type": "DT_FLOAT"}, "value": {"tensor": {"dtype": "DT_FLOAT", "tensorShape": {"dim": [{"size": "512"}]}}}}}, {"name": "bert/encoder/layer_21/intermediate/dense_1/Reshape_1/shape", "op": "Const", "attr": {"value": {"tensor": {"dtype": "DT_INT32", "tensorShape": {"dim": [{"size": "3"}]}}}, "dtype": {"type": "DT_INT32"}}}, {"name": "bert/encoder/layer_21/output/dense_1/Reshape/shape", "op": "Const", "attr": {"value": {"tensor": {"dtype": "DT_INT32", "tensorShape": {"dim": [{"size": "2"}]}}}, "dtype": {"type": "DT_INT32"}}}, {"name": "bert/encoder/layer_21/output/dense/kernel", "op": "Const", "attr": {"value": {"tensor": {"dtype": "DT_FLOAT", "tensorShape": {"dim": [{"size": "512"}, {"size": "128"}]}}}, "dtype": {"type": "DT_FLOAT"}}}, {"name": "bert/encoder/layer_21/output/dense/bias", "op": "Const", "attr": {"value": {"tensor": {"dtype": "DT_FLOAT", "tensorShape": {"dim": [{"size": "128"}]}}}, "dtype": {"type": "DT_FLOAT"}}}, {"name": "bert/encoder/layer_21/output/dense_1/Reshape_1/shape", "op": "Const", "attr": {"value": {"tensor": {"dtype": "DT_INT32", "tensorShape": {"dim": [{"size": "3"}]}}}, "dtype": {"type": "DT_INT32"}}}, {"name": "bert/encoder/layer_21/ffn_layer_2/intermediate/dense_1/Reshape/shape", "op": "Const", "attr": {"value": {"tensor": {"dtype": "DT_INT32", "tensorShape": {"dim": [{"size": "2"}]}}}, "dtype": {"type": "DT_INT32"}}}, {"name": "bert/encoder/layer_21/ffn_layer_2/intermediate/dense/kernel", "op": "Const", "attr": {"value": {"tensor": {"dtype": "DT_FLOAT", "tensorShape": {"dim": [{"size": "128"}, {"size": "512"}]}}}, "dtype": {"type": "DT_FLOAT"}}}, {"name": "bert/encoder/layer_21/ffn_layer_2/intermediate/dense/bias", "op": "Const", "attr": {"value": {"tensor": {"dtype": "DT_FLOAT", "tensorShape": {"dim": [{"size": "512"}]}}}, "dtype": {"type": "DT_FLOAT"}}}, {"name": "bert/encoder/layer_21/ffn_layer_2/intermediate/dense_1/Reshape_1/shape", "op": "Const", "attr": {"value": {"tensor": {"dtype": "DT_INT32", "tensorShape": {"dim": [{"size": "3"}]}}}, "dtype": {"type": "DT_INT32"}}}, {"name": "bert/encoder/layer_21/ffn_layer_2/output/dense_1/Reshape/shape", "op": "Const", "attr": {"value": {"tensor": {"dtype": "DT_INT32", "tensorShape": {"dim": [{"size": "2"}]}}}, "dtype": {"type": "DT_INT32"}}}, {"name": "bert/encoder/layer_21/ffn_layer_2/output/dense/kernel", "op": "Const", "attr": {"value": {"tensor": {"dtype": "DT_FLOAT", "tensorShape": {"dim": [{"size": "512"}, {"size": "128"}]}}}, "dtype": {"type": "DT_FLOAT"}}}, {"name": "bert/encoder/layer_21/ffn_layer_2/output/dense/bias", "op": "Const", "attr": {"value": {"tensor": {"dtype": "DT_FLOAT", "tensorShape": {"dim": [{"size": "128"}]}}}, "dtype": {"type": "DT_FLOAT"}}}, {"name": "bert/encoder/layer_21/ffn_layer_2/output/dense_1/Reshape_1/shape", "op": "Const", "attr": {"value": {"tensor": {"dtype": "DT_INT32", "tensorShape": {"dim": [{"size": "3"}]}}}, "dtype": {"type": "DT_INT32"}}}, {"name": "bert/encoder/layer_21/ffn_layer_1/intermediate/dense_1/Reshape/shape", "op": "Const", "attr": {"value": {"tensor": {"dtype": "DT_INT32", "tensorShape": {"dim": [{"size": "2"}]}}}, "dtype": {"type": "DT_INT32"}}}, {"name": "bert/encoder/layer_21/ffn_layer_1/intermediate/dense/kernel", "op": "Const", "attr": {"dtype": {"type": "DT_FLOAT"}, "value": {"tensor": {"dtype": "DT_FLOAT", "tensorShape": {"dim": [{"size": "128"}, {"size": "512"}]}}}}}, {"name": "bert/encoder/layer_21/ffn_layer_1/intermediate/dense/bias", "op": "Const", "attr": {"value": {"tensor": {"dtype": "DT_FLOAT", "tensorShape": {"dim": [{"size": "512"}]}}}, "dtype": {"type": "DT_FLOAT"}}}, {"name": "bert/encoder/layer_21/ffn_layer_1/intermediate/dense_1/Reshape_1/shape", "op": "Const", "attr": {"value": {"tensor": {"dtype": "DT_INT32", "tensorShape": {"dim": [{"size": "3"}]}}}, "dtype": {"type": "DT_INT32"}}}, {"name": "bert/encoder/layer_21/ffn_layer_1/output/dense_1/Reshape/shape", "op": "Const", "attr": {"value": {"tensor": {"dtype": "DT_INT32", "tensorShape": {"dim": [{"size": "2"}]}}}, "dtype": {"type": "DT_INT32"}}}, {"name": "bert/encoder/layer_21/ffn_layer_1/output/dense/kernel", "op": "Const", "attr": {"value": {"tensor": {"dtype": "DT_FLOAT", "tensorShape": {"dim": [{"size": "512"}, {"size": "128"}]}}}, "dtype": {"type": "DT_FLOAT"}}}, {"name": "bert/encoder/layer_21/ffn_layer_1/output/dense/bias", "op": "Const", "attr": {"value": {"tensor": {"dtype": "DT_FLOAT", "tensorShape": {"dim": [{"size": "128"}]}}}, "dtype": {"type": "DT_FLOAT"}}}, {"name": "bert/encoder/layer_21/ffn_layer_1/output/dense_1/Reshape_1/shape", "op": "Const", "attr": {"value": {"tensor": {"dtype": "DT_INT32", "tensorShape": {"dim": [{"size": "3"}]}}}, "dtype": {"type": "DT_INT32"}}}, {"name": "bert/encoder/layer_21/ffn_layer_0/intermediate/dense_1/Reshape/shape", "op": "Const", "attr": {"value": {"tensor": {"dtype": "DT_INT32", "tensorShape": {"dim": [{"size": "2"}]}}}, "dtype": {"type": "DT_INT32"}}}, {"name": "bert/encoder/layer_21/ffn_layer_0/intermediate/dense/kernel", "op": "Const", "attr": {"dtype": {"type": "DT_FLOAT"}, "value": {"tensor": {"dtype": "DT_FLOAT", "tensorShape": {"dim": [{"size": "128"}, {"size": "512"}]}}}}}, {"name": "bert/encoder/layer_21/ffn_layer_0/intermediate/dense/bias", "op": "Const", "attr": {"value": {"tensor": {"dtype": "DT_FLOAT", "tensorShape": {"dim": [{"size": "512"}]}}}, "dtype": {"type": "DT_FLOAT"}}}, {"name": "bert/encoder/layer_21/ffn_layer_0/intermediate/dense_1/Reshape_1/shape", "op": "Const", "attr": {"value": {"tensor": {"dtype": "DT_INT32", "tensorShape": {"dim": [{"size": "3"}]}}}, "dtype": {"type": "DT_INT32"}}}, {"name": "bert/encoder/layer_21/ffn_layer_0/output/dense_1/Reshape/shape", "op": "Const", "attr": {"value": {"tensor": {"dtype": "DT_INT32", "tensorShape": {"dim": [{"size": "2"}]}}}, "dtype": {"type": "DT_INT32"}}}, {"name": "bert/encoder/layer_21/ffn_layer_0/output/dense/kernel", "op": "Const", "attr": {"value": {"tensor": {"dtype": "DT_FLOAT", "tensorShape": {"dim": [{"size": "512"}, {"size": "128"}]}}}, "dtype": {"type": "DT_FLOAT"}}}, {"name": "bert/encoder/layer_21/ffn_layer_0/output/dense/bias", "op": "Const", "attr": {"dtype": {"type": "DT_FLOAT"}, "value": {"tensor": {"dtype": "DT_FLOAT", "tensorShape": {"dim": [{"size": "128"}]}}}}}, {"name": "bert/encoder/layer_21/ffn_layer_0/output/dense_1/Reshape_1/shape", "op": "Const", "attr": {"dtype": {"type": "DT_INT32"}, "value": {"tensor": {"dtype": "DT_INT32", "tensorShape": {"dim": [{"size": "3"}]}}}}}, {"name": "bert/encoder/layer_21/bottleneck/input/FakeLayerNorm/beta", "op": "Const", "attr": {"dtype": {"type": "DT_FLOAT"}, "value": {"tensor": {"dtype": "DT_FLOAT", "tensorShape": {"dim": [{"size": "128"}]}}}}}, {"name": "bert/encoder/layer_21/attention/self/Mul/y", "op": "Const", "attr": {"dtype": {"type": "DT_FLOAT"}, "value": {"tensor": {"dtype": "DT_FLOAT", "tensorShape": {}}}}}, {"name": "bert/encoder/layer_21/attention/self/query_1/Reshape/shape", "op": "Const", "attr": {"value": {"tensor": {"dtype": "DT_INT32", "tensorShape": {"dim": [{"size": "2"}]}}}, "dtype": {"type": "DT_INT32"}}}, {"name": "bert/encoder/layer_21/attention/self/query/kernel", "op": "Const", "attr": {"value": {"tensor": {"dtype": "DT_FLOAT", "tensorShape": {"dim": [{"size": "128"}, {"size": "128"}]}}}, "dtype": {"type": "DT_FLOAT"}}}, {"name": "bert/encoder/layer_21/attention/self/query/bias", "op": "Const", "attr": {"value": {"tensor": {"dtype": "DT_FLOAT", "tensorShape": {"dim": [{"size": "128"}]}}}, "dtype": {"type": "DT_FLOAT"}}}, {"name": "bert/encoder/layer_21/attention/self/query_1/Reshape_1/shape", "op": "Const", "attr": {"value": {"tensor": {"dtype": "DT_INT32", "tensorShape": {"dim": [{"size": "4"}]}}}, "dtype": {"type": "DT_INT32"}}}, {"name": "bert/encoder/layer_21/attention/self/transpose/perm", "op": "Const", "attr": {"value": {"tensor": {"dtype": "DT_INT32", "tensorShape": {"dim": [{"size": "4"}]}}}, "dtype": {"type": "DT_INT32"}}}, {"name": "bert/encoder/layer_21/bottleneck/attention/dense_1/Reshape/shape", "op": "Const", "attr": {"value": {"tensor": {"dtype": "DT_INT32", "tensorShape": {"dim": [{"size": "2"}]}}}, "dtype": {"type": "DT_INT32"}}}, {"name": "bert/encoder/layer_21/bottleneck/attention/dense/kernel", "op": "Const", "attr": {"value": {"tensor": {"dtype": "DT_FLOAT", "tensorShape": {"dim": [{"size": "256"}, {"size": "128"}]}}}, "dtype": {"type": "DT_FLOAT"}}}, {"name": "bert/encoder/layer_21/bottleneck/attention/dense/bias", "op": "Const", "attr": {"value": {"tensor": {"dtype": "DT_FLOAT", "tensorShape": {"dim": [{"size": "128"}]}}}, "dtype": {"type": "DT_FLOAT"}}}, {"name": "bert/encoder/layer_21/bottleneck/attention/dense_1/Reshape_1/shape", "op": "Const", "attr": {"value": {"tensor": {"dtype": "DT_INT32", "tensorShape": {"dim": [{"size": "3"}]}}}, "dtype": {"type": "DT_INT32"}}}, {"name": "bert/encoder/layer_21/bottleneck/attention/FakeLayerNorm/gamma", "op": "Const", "attr": {"value": {"tensor": {"dtype": "DT_FLOAT", "tensorShape": {"dim": [{"size": "128"}]}}}, "dtype": {"type": "DT_FLOAT"}}}, {"name": "bert/encoder/layer_21/bottleneck/attention/FakeLayerNorm/beta", "op": "Const", "attr": {"value": {"tensor": {"dtype": "DT_FLOAT", "tensorShape": {"dim": [{"size": "128"}]}}}, "dtype": {"type": "DT_FLOAT"}}}, {"name": "bert/encoder/layer_21/attention/self/key_1/Reshape/shape", "op": "Const", "attr": {"value": {"tensor": {"dtype": "DT_INT32", "tensorShape": {"dim": [{"size": "2"}]}}}, "dtype": {"type": "DT_INT32"}}}, {"name": "bert/encoder/layer_21/attention/self/key/kernel", "op": "Const", "attr": {"value": {"tensor": {"dtype": "DT_FLOAT", "tensorShape": {"dim": [{"size": "128"}, {"size": "128"}]}}}, "dtype": {"type": "DT_FLOAT"}}}, {"name": "bert/encoder/layer_21/attention/self/key/bias", "op": "Const", "attr": {"value": {"tensor": {"dtype": "DT_FLOAT", "tensorShape": {"dim": [{"size": "128"}]}}}, "dtype": {"type": "DT_FLOAT"}}}, {"name": "bert/encoder/layer_21/attention/self/key_1/Reshape_1/shape", "op": "Const", "attr": {"value": {"tensor": {"dtype": "DT_INT32", "tensorShape": {"dim": [{"size": "4"}]}}}, "dtype": {"type": "DT_INT32"}}}, {"name": "bert/encoder/layer_21/attention/self/transpose_1/perm", "op": "Const", "attr": {"value": {"tensor": {"dtype": "DT_INT32", "tensorShape": {"dim": [{"size": "4"}]}}}, "dtype": {"type": "DT_INT32"}}}, {"name": "bert/encoder/layer_21/attention/self/sub/x", "op": "Const", "attr": {"value": {"tensor": {"dtype": "DT_FLOAT", "tensorShape": {}}}, "dtype": {"type": "DT_FLOAT"}}}, {"name": "bert/encoder/layer_21/attention/self/ExpandDims/dim", "op": "Const", "attr": {"dtype": {"type": "DT_INT32"}, "value": {"tensor": {"dtype": "DT_INT32", "tensorShape": {"dim": [{"size": "1"}]}}}}}, {"name": "bert/encoder/layer_21/attention/self/mul_1/y", "op": "Const", "attr": {"value": {"tensor": {"dtype": "DT_FLOAT", "tensorShape": {}}}, "dtype": {"type": "DT_FLOAT"}}}, {"name": "bert/encoder/layer_21/attention/self/value_1/Reshape/shape", "op": "Const", "attr": {"value": {"tensor": {"dtype": "DT_INT32", "tensorShape": {"dim": [{"size": "2"}]}}}, "dtype": {"type": "DT_INT32"}}}, {"name": "bert/encoder/layer_21/attention/self/value/kernel", "op": "Const", "attr": {"value": {"tensor": {"dtype": "DT_FLOAT", "tensorShape": {"dim": [{"size": "256"}, {"size": "128"}]}}}, "dtype": {"type": "DT_FLOAT"}}}, {"name": "bert/encoder/layer_21/attention/self/value/bias", "op": "Const", "attr": {"value": {"tensor": {"dtype": "DT_FLOAT", "tensorShape": {"dim": [{"size": "128"}]}}}, "dtype": {"type": "DT_FLOAT"}}}, {"name": "bert/encoder/layer_21/attention/self/value_1/Reshape_1/shape", "op": "Const", "attr": {"value": {"tensor": {"dtype": "DT_INT32", "tensorShape": {"dim": [{"size": "4"}]}}}, "dtype": {"type": "DT_INT32"}}}, {"name": "bert/encoder/layer_21/attention/self/transpose_2/perm", "op": "Const", "attr": {"value": {"tensor": {"dtype": "DT_INT32", "tensorShape": {"dim": [{"size": "4"}]}}}, "dtype": {"type": "DT_INT32"}}}, {"name": "bert/encoder/layer_21/attention/self/transpose_3/perm", "op": "Const", "attr": {"value": {"tensor": {"dtype": "DT_INT32", "tensorShape": {"dim": [{"size": "4"}]}}}, "dtype": {"type": "DT_INT32"}}}, {"name": "bert/encoder/layer_21/attention/output/dense_1/Reshape/shape", "op": "Const", "attr": {"value": {"tensor": {"dtype": "DT_INT32", "tensorShape": {"dim": [{"size": "2"}]}}}, "dtype": {"type": "DT_INT32"}}}, {"name": "bert/encoder/layer_21/attention/output/dense/kernel", "op": "Const", "attr": {"value": {"tensor": {"dtype": "DT_FLOAT", "tensorShape": {"dim": [{"size": "128"}, {"size": "128"}]}}}, "dtype": {"type": "DT_FLOAT"}}}, {"name": "bert/encoder/layer_21/attention/output/dense/bias", "op": "Const", "attr": {"value": {"tensor": {"dtype": "DT_FLOAT", "tensorShape": {"dim": [{"size": "128"}]}}}, "dtype": {"type": "DT_FLOAT"}}}, {"name": "bert/encoder/layer_21/attention/output/dense_1/Reshape_1/shape", "op": "Const", "attr": {"value": {"tensor": {"dtype": "DT_INT32", "tensorShape": {"dim": [{"size": "3"}]}}}, "dtype": {"type": "DT_INT32"}}}, {"name": "bert/encoder/layer_21/bottleneck/input/dense_1/Reshape/shape", "op": "Const", "attr": {"value": {"tensor": {"dtype": "DT_INT32", "tensorShape": {"dim": [{"size": "2"}]}}}, "dtype": {"type": "DT_INT32"}}}, {"name": "bert/encoder/layer_21/bottleneck/input/dense/kernel", "op": "Const", "attr": {"value": {"tensor": {"dtype": "DT_FLOAT", "tensorShape": {"dim": [{"size": "256"}, {"size": "128"}]}}}, "dtype": {"type": "DT_FLOAT"}}}, {"name": "bert/encoder/layer_21/bottleneck/input/dense/bias", "op": "Const", "attr": {"value": {"tensor": {"dtype": "DT_FLOAT", "tensorShape": {"dim": [{"size": "128"}]}}}, "dtype": {"type": "DT_FLOAT"}}}, {"name": "bert/encoder/layer_21/bottleneck/input/dense_1/Reshape_1/shape", "op": "Const", "attr": {"value": {"tensor": {"dtype": "DT_INT32", "tensorShape": {"dim": [{"size": "3"}]}}}, "dtype": {"type": "DT_INT32"}}}, {"name": "bert/encoder/layer_21/bottleneck/input/FakeLayerNorm/gamma", "op": "Const", "attr": {"value": {"tensor": {"dtype": "DT_FLOAT", "tensorShape": {"dim": [{"size": "128"}]}}}, "dtype": {"type": "DT_FLOAT"}}}, {"name": "bert/encoder/layer_21/attention/output/FakeLayerNorm/gamma", "op": "Const", "attr": {"dtype": {"type": "DT_FLOAT"}, "value": {"tensor": {"dtype": "DT_FLOAT", "tensorShape": {"dim": [{"size": "128"}]}}}}}, {"name": "bert/encoder/layer_21/attention/output/FakeLayerNorm/beta", "op": "Const", "attr": {"value": {"tensor": {"dtype": "DT_FLOAT", "tensorShape": {"dim": [{"size": "128"}]}}}, "dtype": {"type": "DT_FLOAT"}}}, {"name": "bert/encoder/layer_21/ffn_layer_0/output/FakeLayerNorm/gamma", "op": "Const", "attr": {"value": {"tensor": {"dtype": "DT_FLOAT", "tensorShape": {"dim": [{"size": "128"}]}}}, "dtype": {"type": "DT_FLOAT"}}}, {"name": "bert/encoder/layer_21/ffn_layer_0/output/FakeLayerNorm/beta", "op": "Const", "attr": {"value": {"tensor": {"dtype": "DT_FLOAT", "tensorShape": {"dim": [{"size": "128"}]}}}, "dtype": {"type": "DT_FLOAT"}}}, {"name": "bert/encoder/layer_21/ffn_layer_1/output/FakeLayerNorm/gamma", "op": "Const", "attr": {"value": {"tensor": {"dtype": "DT_FLOAT", "tensorShape": {"dim": [{"size": "128"}]}}}, "dtype": {"type": "DT_FLOAT"}}}, {"name": "bert/encoder/layer_21/ffn_layer_1/output/FakeLayerNorm/beta", "op": "Const", "attr": {"value": {"tensor": {"dtype": "DT_FLOAT", "tensorShape": {"dim": [{"size": "128"}]}}}, "dtype": {"type": "DT_FLOAT"}}}, {"name": "bert/encoder/layer_21/ffn_layer_2/output/FakeLayerNorm/gamma", "op": "Const", "attr": {"value": {"tensor": {"dtype": "DT_FLOAT", "tensorShape": {"dim": [{"size": "128"}]}}}, "dtype": {"type": "DT_FLOAT"}}}, {"name": "bert/encoder/layer_21/ffn_layer_2/output/FakeLayerNorm/beta", "op": "Const", "attr": {"value": {"tensor": {"dtype": "DT_FLOAT", "tensorShape": {"dim": [{"size": "128"}]}}}, "dtype": {"type": "DT_FLOAT"}}}, {"name": "bert/encoder/layer_21/output/FakeLayerNorm/gamma", "op": "Const", "attr": {"value": {"tensor": {"dtype": "DT_FLOAT", "tensorShape": {"dim": [{"size": "128"}]}}}, "dtype": {"type": "DT_FLOAT"}}}, {"name": "bert/encoder/layer_21/output/FakeLayerNorm/beta", "op": "Const", "attr": {"value": {"tensor": {"dtype": "DT_FLOAT", "tensorShape": {"dim": [{"size": "128"}]}}}, "dtype": {"type": "DT_FLOAT"}}}, {"name": "bert/encoder/layer_21/output/bottleneck/dense_1/Reshape/shape", "op": "Const", "attr": {"dtype": {"type": "DT_INT32"}, "value": {"tensor": {"dtype": "DT_INT32", "tensorShape": {"dim": [{"size": "2"}]}}}}}, {"name": "bert/encoder/layer_21/output/bottleneck/dense/kernel", "op": "Const", "attr": {"value": {"tensor": {"dtype": "DT_FLOAT", "tensorShape": {"dim": [{"size": "128"}, {"size": "256"}]}}}, "dtype": {"type": "DT_FLOAT"}}}, {"name": "bert/encoder/layer_21/output/bottleneck/dense/bias", "op": "Const", "attr": {"value": {"tensor": {"dtype": "DT_FLOAT", "tensorShape": {"dim": [{"size": "256"}]}}}, "dtype": {"type": "DT_FLOAT"}}}, {"name": "bert/encoder/layer_21/output/bottleneck/dense_1/Reshape_1/shape", "op": "Const", "attr": {"value": {"tensor": {"dtype": "DT_INT32", "tensorShape": {"dim": [{"size": "3"}]}}}, "dtype": {"type": "DT_INT32"}}}, {"name": "bert/encoder/layer_20/intermediate/dense_1/Reshape/shape", "op": "Const", "attr": {"value": {"tensor": {"dtype": "DT_INT32", "tensorShape": {"dim": [{"size": "2"}]}}}, "dtype": {"type": "DT_INT32"}}}, {"name": "bert/encoder/layer_20/intermediate/dense/kernel", "op": "Const", "attr": {"dtype": {"type": "DT_FLOAT"}, "value": {"tensor": {"dtype": "DT_FLOAT", "tensorShape": {"dim": [{"size": "128"}, {"size": "512"}]}}}}}, {"name": "bert/encoder/layer_20/intermediate/dense/bias", "op": "Const", "attr": {"value": {"tensor": {"dtype": "DT_FLOAT", "tensorShape": {"dim": [{"size": "512"}]}}}, "dtype": {"type": "DT_FLOAT"}}}, {"name": "bert/encoder/layer_20/intermediate/dense_1/Reshape_1/shape", "op": "Const", "attr": {"value": {"tensor": {"dtype": "DT_INT32", "tensorShape": {"dim": [{"size": "3"}]}}}, "dtype": {"type": "DT_INT32"}}}, {"name": "bert/encoder/layer_20/output/dense_1/Reshape/shape", "op": "Const", "attr": {"value": {"tensor": {"dtype": "DT_INT32", "tensorShape": {"dim": [{"size": "2"}]}}}, "dtype": {"type": "DT_INT32"}}}, {"name": "bert/encoder/layer_20/output/dense/kernel", "op": "Const", "attr": {"value": {"tensor": {"dtype": "DT_FLOAT", "tensorShape": {"dim": [{"size": "512"}, {"size": "128"}]}}}, "dtype": {"type": "DT_FLOAT"}}}, {"name": "bert/encoder/layer_20/output/dense/bias", "op": "Const", "attr": {"dtype": {"type": "DT_FLOAT"}, "value": {"tensor": {"dtype": "DT_FLOAT", "tensorShape": {"dim": [{"size": "128"}]}}}}}, {"name": "bert/encoder/layer_20/output/dense_1/Reshape_1/shape", "op": "Const", "attr": {"value": {"tensor": {"dtype": "DT_INT32", "tensorShape": {"dim": [{"size": "3"}]}}}, "dtype": {"type": "DT_INT32"}}}, {"name": "bert/encoder/layer_20/ffn_layer_2/intermediate/dense_1/Reshape/shape", "op": "Const", "attr": {"value": {"tensor": {"dtype": "DT_INT32", "tensorShape": {"dim": [{"size": "2"}]}}}, "dtype": {"type": "DT_INT32"}}}, {"name": "bert/encoder/layer_20/ffn_layer_2/intermediate/dense/kernel", "op": "Const", "attr": {"value": {"tensor": {"dtype": "DT_FLOAT", "tensorShape": {"dim": [{"size": "128"}, {"size": "512"}]}}}, "dtype": {"type": "DT_FLOAT"}}}, {"name": "bert/encoder/layer_20/ffn_layer_2/intermediate/dense/bias", "op": "Const", "attr": {"value": {"tensor": {"dtype": "DT_FLOAT", "tensorShape": {"dim": [{"size": "512"}]}}}, "dtype": {"type": "DT_FLOAT"}}}, {"name": "bert/encoder/layer_20/ffn_layer_2/intermediate/dense_1/Reshape_1/shape", "op": "Const", "attr": {"value": {"tensor": {"dtype": "DT_INT32", "tensorShape": {"dim": [{"size": "3"}]}}}, "dtype": {"type": "DT_INT32"}}}, {"name": "bert/encoder/layer_20/ffn_layer_2/output/dense_1/Reshape/shape", "op": "Const", "attr": {"value": {"tensor": {"dtype": "DT_INT32", "tensorShape": {"dim": [{"size": "2"}]}}}, "dtype": {"type": "DT_INT32"}}}, {"name": "bert/encoder/layer_20/ffn_layer_2/output/dense/kernel", "op": "Const", "attr": {"value": {"tensor": {"dtype": "DT_FLOAT", "tensorShape": {"dim": [{"size": "512"}, {"size": "128"}]}}}, "dtype": {"type": "DT_FLOAT"}}}, {"name": "bert/encoder/layer_20/ffn_layer_2/output/dense/bias", "op": "Const", "attr": {"value": {"tensor": {"dtype": "DT_FLOAT", "tensorShape": {"dim": [{"size": "128"}]}}}, "dtype": {"type": "DT_FLOAT"}}}, {"name": "bert/encoder/layer_20/ffn_layer_2/output/dense_1/Reshape_1/shape", "op": "Const", "attr": {"value": {"tensor": {"dtype": "DT_INT32", "tensorShape": {"dim": [{"size": "3"}]}}}, "dtype": {"type": "DT_INT32"}}}, {"name": "bert/encoder/layer_20/ffn_layer_1/intermediate/dense_1/Reshape/shape", "op": "Const", "attr": {"value": {"tensor": {"dtype": "DT_INT32", "tensorShape": {"dim": [{"size": "2"}]}}}, "dtype": {"type": "DT_INT32"}}}, {"name": "bert/encoder/layer_20/ffn_layer_1/intermediate/dense/kernel", "op": "Const", "attr": {"value": {"tensor": {"dtype": "DT_FLOAT", "tensorShape": {"dim": [{"size": "128"}, {"size": "512"}]}}}, "dtype": {"type": "DT_FLOAT"}}}, {"name": "bert/encoder/layer_20/ffn_layer_1/intermediate/dense/bias", "op": "Const", "attr": {"value": {"tensor": {"dtype": "DT_FLOAT", "tensorShape": {"dim": [{"size": "512"}]}}}, "dtype": {"type": "DT_FLOAT"}}}, {"name": "bert/encoder/layer_20/ffn_layer_1/intermediate/dense_1/Reshape_1/shape", "op": "Const", "attr": {"dtype": {"type": "DT_INT32"}, "value": {"tensor": {"dtype": "DT_INT32", "tensorShape": {"dim": [{"size": "3"}]}}}}}, {"name": "bert/encoder/layer_20/ffn_layer_1/output/dense_1/Reshape/shape", "op": "Const", "attr": {"value": {"tensor": {"dtype": "DT_INT32", "tensorShape": {"dim": [{"size": "2"}]}}}, "dtype": {"type": "DT_INT32"}}}, {"name": "bert/encoder/layer_20/ffn_layer_1/output/dense/kernel", "op": "Const", "attr": {"value": {"tensor": {"dtype": "DT_FLOAT", "tensorShape": {"dim": [{"size": "512"}, {"size": "128"}]}}}, "dtype": {"type": "DT_FLOAT"}}}, {"name": "bert/encoder/layer_20/ffn_layer_1/output/dense/bias", "op": "Const", "attr": {"value": {"tensor": {"dtype": "DT_FLOAT", "tensorShape": {"dim": [{"size": "128"}]}}}, "dtype": {"type": "DT_FLOAT"}}}, {"name": "bert/encoder/layer_20/ffn_layer_1/output/dense_1/Reshape_1/shape", "op": "Const", "attr": {"value": {"tensor": {"dtype": "DT_INT32", "tensorShape": {"dim": [{"size": "3"}]}}}, "dtype": {"type": "DT_INT32"}}}, {"name": "bert/encoder/layer_20/ffn_layer_0/intermediate/dense_1/Reshape/shape", "op": "Const", "attr": {"dtype": {"type": "DT_INT32"}, "value": {"tensor": {"dtype": "DT_INT32", "tensorShape": {"dim": [{"size": "2"}]}}}}}, {"name": "bert/encoder/layer_20/ffn_layer_0/intermediate/dense/kernel", "op": "Const", "attr": {"value": {"tensor": {"dtype": "DT_FLOAT", "tensorShape": {"dim": [{"size": "128"}, {"size": "512"}]}}}, "dtype": {"type": "DT_FLOAT"}}}, {"name": "bert/encoder/layer_20/ffn_layer_0/intermediate/dense/bias", "op": "Const", "attr": {"value": {"tensor": {"dtype": "DT_FLOAT", "tensorShape": {"dim": [{"size": "512"}]}}}, "dtype": {"type": "DT_FLOAT"}}}, {"name": "bert/encoder/layer_20/ffn_layer_0/intermediate/dense_1/Reshape_1/shape", "op": "Const", "attr": {"value": {"tensor": {"dtype": "DT_INT32", "tensorShape": {"dim": [{"size": "3"}]}}}, "dtype": {"type": "DT_INT32"}}}, {"name": "bert/encoder/layer_20/ffn_layer_0/output/dense_1/Reshape/shape", "op": "Const", "attr": {"value": {"tensor": {"dtype": "DT_INT32", "tensorShape": {"dim": [{"size": "2"}]}}}, "dtype": {"type": "DT_INT32"}}}, {"name": "bert/encoder/layer_20/ffn_layer_0/output/dense/kernel", "op": "Const", "attr": {"value": {"tensor": {"dtype": "DT_FLOAT", "tensorShape": {"dim": [{"size": "512"}, {"size": "128"}]}}}, "dtype": {"type": "DT_FLOAT"}}}, {"name": "bert/encoder/layer_20/ffn_layer_0/output/dense/bias", "op": "Const", "attr": {"value": {"tensor": {"dtype": "DT_FLOAT", "tensorShape": {"dim": [{"size": "128"}]}}}, "dtype": {"type": "DT_FLOAT"}}}, {"name": "bert/encoder/layer_20/ffn_layer_0/output/dense_1/Reshape_1/shape", "op": "Const", "attr": {"value": {"tensor": {"dtype": "DT_INT32", "tensorShape": {"dim": [{"size": "3"}]}}}, "dtype": {"type": "DT_INT32"}}}, {"name": "bert/encoder/layer_20/bottleneck/input/FakeLayerNorm/beta", "op": "Const", "attr": {"dtype": {"type": "DT_FLOAT"}, "value": {"tensor": {"dtype": "DT_FLOAT", "tensorShape": {"dim": [{"size": "128"}]}}}}}, {"name": "bert/encoder/layer_20/attention/self/Mul/y", "op": "Const", "attr": {"value": {"tensor": {"dtype": "DT_FLOAT", "tensorShape": {}}}, "dtype": {"type": "DT_FLOAT"}}}, {"name": "bert/encoder/layer_20/attention/self/query_1/Reshape/shape", "op": "Const", "attr": {"value": {"tensor": {"dtype": "DT_INT32", "tensorShape": {"dim": [{"size": "2"}]}}}, "dtype": {"type": "DT_INT32"}}}, {"name": "bert/encoder/layer_20/attention/self/query/kernel", "op": "Const", "attr": {"value": {"tensor": {"dtype": "DT_FLOAT", "tensorShape": {"dim": [{"size": "128"}, {"size": "128"}]}}}, "dtype": {"type": "DT_FLOAT"}}}, {"name": "bert/encoder/layer_20/attention/self/query/bias", "op": "Const", "attr": {"value": {"tensor": {"dtype": "DT_FLOAT", "tensorShape": {"dim": [{"size": "128"}]}}}, "dtype": {"type": "DT_FLOAT"}}}, {"name": "bert/encoder/layer_20/attention/self/query_1/Reshape_1/shape", "op": "Const", "attr": {"value": {"tensor": {"dtype": "DT_INT32", "tensorShape": {"dim": [{"size": "4"}]}}}, "dtype": {"type": "DT_INT32"}}}, {"name": "bert/encoder/layer_20/attention/self/transpose/perm", "op": "Const", "attr": {"value": {"tensor": {"dtype": "DT_INT32", "tensorShape": {"dim": [{"size": "4"}]}}}, "dtype": {"type": "DT_INT32"}}}, {"name": "bert/encoder/layer_20/bottleneck/attention/dense_1/Reshape/shape", "op": "Const", "attr": {"value": {"tensor": {"dtype": "DT_INT32", "tensorShape": {"dim": [{"size": "2"}]}}}, "dtype": {"type": "DT_INT32"}}}, {"name": "bert/encoder/layer_20/bottleneck/attention/dense/kernel", "op": "Const", "attr": {"value": {"tensor": {"dtype": "DT_FLOAT", "tensorShape": {"dim": [{"size": "256"}, {"size": "128"}]}}}, "dtype": {"type": "DT_FLOAT"}}}, {"name": "bert/encoder/layer_20/bottleneck/attention/dense/bias", "op": "Const", "attr": {"value": {"tensor": {"dtype": "DT_FLOAT", "tensorShape": {"dim": [{"size": "128"}]}}}, "dtype": {"type": "DT_FLOAT"}}}, {"name": "bert/encoder/layer_20/bottleneck/attention/dense_1/Reshape_1/shape", "op": "Const", "attr": {"value": {"tensor": {"dtype": "DT_INT32", "tensorShape": {"dim": [{"size": "3"}]}}}, "dtype": {"type": "DT_INT32"}}}, {"name": "bert/encoder/layer_20/bottleneck/attention/FakeLayerNorm/gamma", "op": "Const", "attr": {"value": {"tensor": {"dtype": "DT_FLOAT", "tensorShape": {"dim": [{"size": "128"}]}}}, "dtype": {"type": "DT_FLOAT"}}}, {"name": "bert/encoder/layer_20/bottleneck/attention/FakeLayerNorm/beta", "op": "Const", "attr": {"value": {"tensor": {"dtype": "DT_FLOAT", "tensorShape": {"dim": [{"size": "128"}]}}}, "dtype": {"type": "DT_FLOAT"}}}, {"name": "bert/encoder/layer_20/attention/self/key_1/Reshape/shape", "op": "Const", "attr": {"value": {"tensor": {"dtype": "DT_INT32", "tensorShape": {"dim": [{"size": "2"}]}}}, "dtype": {"type": "DT_INT32"}}}, {"name": "bert/encoder/layer_20/attention/self/key/kernel", "op": "Const", "attr": {"value": {"tensor": {"dtype": "DT_FLOAT", "tensorShape": {"dim": [{"size": "128"}, {"size": "128"}]}}}, "dtype": {"type": "DT_FLOAT"}}}, {"name": "bert/encoder/layer_20/attention/self/key/bias", "op": "Const", "attr": {"dtype": {"type": "DT_FLOAT"}, "value": {"tensor": {"dtype": "DT_FLOAT", "tensorShape": {"dim": [{"size": "128"}]}}}}}, {"name": "bert/encoder/layer_20/attention/self/key_1/Reshape_1/shape", "op": "Const", "attr": {"value": {"tensor": {"dtype": "DT_INT32", "tensorShape": {"dim": [{"size": "4"}]}}}, "dtype": {"type": "DT_INT32"}}}, {"name": "bert/encoder/layer_20/attention/self/transpose_1/perm", "op": "Const", "attr": {"value": {"tensor": {"dtype": "DT_INT32", "tensorShape": {"dim": [{"size": "4"}]}}}, "dtype": {"type": "DT_INT32"}}}, {"name": "bert/encoder/layer_20/attention/self/sub/x", "op": "Const", "attr": {"value": {"tensor": {"dtype": "DT_FLOAT", "tensorShape": {}}}, "dtype": {"type": "DT_FLOAT"}}}, {"name": "bert/encoder/layer_20/attention/self/ExpandDims/dim", "op": "Const", "attr": {"value": {"tensor": {"dtype": "DT_INT32", "tensorShape": {"dim": [{"size": "1"}]}}}, "dtype": {"type": "DT_INT32"}}}, {"name": "bert/encoder/layer_20/attention/self/mul_1/y", "op": "Const", "attr": {"value": {"tensor": {"dtype": "DT_FLOAT", "tensorShape": {}}}, "dtype": {"type": "DT_FLOAT"}}}, {"name": "bert/encoder/layer_20/attention/self/value_1/Reshape/shape", "op": "Const", "attr": {"value": {"tensor": {"dtype": "DT_INT32", "tensorShape": {"dim": [{"size": "2"}]}}}, "dtype": {"type": "DT_INT32"}}}, {"name": "bert/encoder/layer_20/attention/self/value/kernel", "op": "Const", "attr": {"value": {"tensor": {"dtype": "DT_FLOAT", "tensorShape": {"dim": [{"size": "256"}, {"size": "128"}]}}}, "dtype": {"type": "DT_FLOAT"}}}, {"name": "bert/encoder/layer_20/attention/self/value/bias", "op": "Const", "attr": {"value": {"tensor": {"dtype": "DT_FLOAT", "tensorShape": {"dim": [{"size": "128"}]}}}, "dtype": {"type": "DT_FLOAT"}}}, {"name": "bert/encoder/layer_20/attention/self/value_1/Reshape_1/shape", "op": "Const", "attr": {"dtype": {"type": "DT_INT32"}, "value": {"tensor": {"dtype": "DT_INT32", "tensorShape": {"dim": [{"size": "4"}]}}}}}, {"name": "bert/encoder/layer_20/attention/self/transpose_2/perm", "op": "Const", "attr": {"value": {"tensor": {"dtype": "DT_INT32", "tensorShape": {"dim": [{"size": "4"}]}}}, "dtype": {"type": "DT_INT32"}}}, {"name": "bert/encoder/layer_20/attention/self/transpose_3/perm", "op": "Const", "attr": {"value": {"tensor": {"dtype": "DT_INT32", "tensorShape": {"dim": [{"size": "4"}]}}}, "dtype": {"type": "DT_INT32"}}}, {"name": "bert/encoder/layer_20/attention/output/dense_1/Reshape/shape", "op": "Const", "attr": {"value": {"tensor": {"dtype": "DT_INT32", "tensorShape": {"dim": [{"size": "2"}]}}}, "dtype": {"type": "DT_INT32"}}}, {"name": "bert/encoder/layer_20/attention/output/dense/kernel", "op": "Const", "attr": {"value": {"tensor": {"dtype": "DT_FLOAT", "tensorShape": {"dim": [{"size": "128"}, {"size": "128"}]}}}, "dtype": {"type": "DT_FLOAT"}}}, {"name": "bert/encoder/layer_20/attention/output/dense/bias", "op": "Const", "attr": {"value": {"tensor": {"dtype": "DT_FLOAT", "tensorShape": {"dim": [{"size": "128"}]}}}, "dtype": {"type": "DT_FLOAT"}}}, {"name": "bert/encoder/layer_20/attention/output/dense_1/Reshape_1/shape", "op": "Const", "attr": {"dtype": {"type": "DT_INT32"}, "value": {"tensor": {"dtype": "DT_INT32", "tensorShape": {"dim": [{"size": "3"}]}}}}}, {"name": "bert/encoder/layer_20/bottleneck/input/dense_1/Reshape/shape", "op": "Const", "attr": {"value": {"tensor": {"dtype": "DT_INT32", "tensorShape": {"dim": [{"size": "2"}]}}}, "dtype": {"type": "DT_INT32"}}}, {"name": "bert/encoder/layer_20/bottleneck/input/dense/kernel", "op": "Const", "attr": {"value": {"tensor": {"dtype": "DT_FLOAT", "tensorShape": {"dim": [{"size": "256"}, {"size": "128"}]}}}, "dtype": {"type": "DT_FLOAT"}}}, {"name": "bert/encoder/layer_20/bottleneck/input/dense/bias", "op": "Const", "attr": {"value": {"tensor": {"dtype": "DT_FLOAT", "tensorShape": {"dim": [{"size": "128"}]}}}, "dtype": {"type": "DT_FLOAT"}}}, {"name": "bert/encoder/layer_20/bottleneck/input/dense_1/Reshape_1/shape", "op": "Const", "attr": {"value": {"tensor": {"dtype": "DT_INT32", "tensorShape": {"dim": [{"size": "3"}]}}}, "dtype": {"type": "DT_INT32"}}}, {"name": "bert/encoder/layer_20/bottleneck/input/FakeLayerNorm/gamma", "op": "Const", "attr": {"value": {"tensor": {"dtype": "DT_FLOAT", "tensorShape": {"dim": [{"size": "128"}]}}}, "dtype": {"type": "DT_FLOAT"}}}, {"name": "bert/encoder/layer_20/attention/output/FakeLayerNorm/gamma", "op": "Const", "attr": {"value": {"tensor": {"dtype": "DT_FLOAT", "tensorShape": {"dim": [{"size": "128"}]}}}, "dtype": {"type": "DT_FLOAT"}}}, {"name": "bert/encoder/layer_20/attention/output/FakeLayerNorm/beta", "op": "Const", "attr": {"dtype": {"type": "DT_FLOAT"}, "value": {"tensor": {"dtype": "DT_FLOAT", "tensorShape": {"dim": [{"size": "128"}]}}}}}, {"name": "bert/encoder/layer_20/ffn_layer_0/output/FakeLayerNorm/gamma", "op": "Const", "attr": {"value": {"tensor": {"dtype": "DT_FLOAT", "tensorShape": {"dim": [{"size": "128"}]}}}, "dtype": {"type": "DT_FLOAT"}}}, {"name": "bert/encoder/layer_20/ffn_layer_0/output/FakeLayerNorm/beta", "op": "Const", "attr": {"dtype": {"type": "DT_FLOAT"}, "value": {"tensor": {"dtype": "DT_FLOAT", "tensorShape": {"dim": [{"size": "128"}]}}}}}, {"name": "bert/encoder/layer_20/ffn_layer_1/output/FakeLayerNorm/gamma", "op": "Const", "attr": {"value": {"tensor": {"dtype": "DT_FLOAT", "tensorShape": {"dim": [{"size": "128"}]}}}, "dtype": {"type": "DT_FLOAT"}}}, {"name": "bert/encoder/layer_20/ffn_layer_1/output/FakeLayerNorm/beta", "op": "Const", "attr": {"value": {"tensor": {"dtype": "DT_FLOAT", "tensorShape": {"dim": [{"size": "128"}]}}}, "dtype": {"type": "DT_FLOAT"}}}, {"name": "bert/encoder/layer_20/ffn_layer_2/output/FakeLayerNorm/gamma", "op": "Const", "attr": {"value": {"tensor": {"dtype": "DT_FLOAT", "tensorShape": {"dim": [{"size": "128"}]}}}, "dtype": {"type": "DT_FLOAT"}}}, {"name": "bert/encoder/layer_20/ffn_layer_2/output/FakeLayerNorm/beta", "op": "Const", "attr": {"value": {"tensor": {"dtype": "DT_FLOAT", "tensorShape": {"dim": [{"size": "128"}]}}}, "dtype": {"type": "DT_FLOAT"}}}, {"name": "bert/encoder/layer_20/output/FakeLayerNorm/gamma", "op": "Const", "attr": {"dtype": {"type": "DT_FLOAT"}, "value": {"tensor": {"dtype": "DT_FLOAT", "tensorShape": {"dim": [{"size": "128"}]}}}}}, {"name": "bert/encoder/layer_20/output/FakeLayerNorm/beta", "op": "Const", "attr": {"value": {"tensor": {"dtype": "DT_FLOAT", "tensorShape": {"dim": [{"size": "128"}]}}}, "dtype": {"type": "DT_FLOAT"}}}, {"name": "bert/encoder/layer_20/output/bottleneck/dense_1/Reshape/shape", "op": "Const", "attr": {"value": {"tensor": {"dtype": "DT_INT32", "tensorShape": {"dim": [{"size": "2"}]}}}, "dtype": {"type": "DT_INT32"}}}, {"name": "bert/encoder/layer_20/output/bottleneck/dense/kernel", "op": "Const", "attr": {"value": {"tensor": {"dtype": "DT_FLOAT", "tensorShape": {"dim": [{"size": "128"}, {"size": "256"}]}}}, "dtype": {"type": "DT_FLOAT"}}}, {"name": "bert/encoder/layer_20/output/bottleneck/dense/bias", "op": "Const", "attr": {"dtype": {"type": "DT_FLOAT"}, "value": {"tensor": {"dtype": "DT_FLOAT", "tensorShape": {"dim": [{"size": "256"}]}}}}}, {"name": "bert/encoder/layer_20/output/bottleneck/dense_1/Reshape_1/shape", "op": "Const", "attr": {"value": {"tensor": {"dtype": "DT_INT32", "tensorShape": {"dim": [{"size": "3"}]}}}, "dtype": {"type": "DT_INT32"}}}, {"name": "bert/encoder/layer_19/intermediate/dense_1/Reshape/shape", "op": "Const", "attr": {"value": {"tensor": {"dtype": "DT_INT32", "tensorShape": {"dim": [{"size": "2"}]}}}, "dtype": {"type": "DT_INT32"}}}, {"name": "bert/encoder/layer_19/intermediate/dense/kernel", "op": "Const", "attr": {"value": {"tensor": {"dtype": "DT_FLOAT", "tensorShape": {"dim": [{"size": "128"}, {"size": "512"}]}}}, "dtype": {"type": "DT_FLOAT"}}}, {"name": "bert/encoder/layer_19/intermediate/dense/bias", "op": "Const", "attr": {"value": {"tensor": {"dtype": "DT_FLOAT", "tensorShape": {"dim": [{"size": "512"}]}}}, "dtype": {"type": "DT_FLOAT"}}}, {"name": "bert/encoder/layer_19/intermediate/dense_1/Reshape_1/shape", "op": "Const", "attr": {"dtype": {"type": "DT_INT32"}, "value": {"tensor": {"dtype": "DT_INT32", "tensorShape": {"dim": [{"size": "3"}]}}}}}, {"name": "bert/encoder/layer_19/output/dense_1/Reshape/shape", "op": "Const", "attr": {"value": {"tensor": {"dtype": "DT_INT32", "tensorShape": {"dim": [{"size": "2"}]}}}, "dtype": {"type": "DT_INT32"}}}, {"name": "bert/encoder/layer_19/output/dense/kernel", "op": "Const", "attr": {"value": {"tensor": {"dtype": "DT_FLOAT", "tensorShape": {"dim": [{"size": "512"}, {"size": "128"}]}}}, "dtype": {"type": "DT_FLOAT"}}}, {"name": "bert/encoder/layer_19/output/dense/bias", "op": "Const", "attr": {"value": {"tensor": {"dtype": "DT_FLOAT", "tensorShape": {"dim": [{"size": "128"}]}}}, "dtype": {"type": "DT_FLOAT"}}}, {"name": "bert/encoder/layer_19/output/dense_1/Reshape_1/shape", "op": "Const", "attr": {"value": {"tensor": {"dtype": "DT_INT32", "tensorShape": {"dim": [{"size": "3"}]}}}, "dtype": {"type": "DT_INT32"}}}, {"name": "bert/encoder/layer_19/ffn_layer_2/intermediate/dense_1/Reshape/shape", "op": "Const", "attr": {"value": {"tensor": {"dtype": "DT_INT32", "tensorShape": {"dim": [{"size": "2"}]}}}, "dtype": {"type": "DT_INT32"}}}, {"name": "bert/encoder/layer_19/ffn_layer_2/intermediate/dense/kernel", "op": "Const", "attr": {"value": {"tensor": {"dtype": "DT_FLOAT", "tensorShape": {"dim": [{"size": "128"}, {"size": "512"}]}}}, "dtype": {"type": "DT_FLOAT"}}}, {"name": "bert/encoder/layer_19/ffn_layer_2/intermediate/dense/bias", "op": "Const", "attr": {"dtype": {"type": "DT_FLOAT"}, "value": {"tensor": {"dtype": "DT_FLOAT", "tensorShape": {"dim": [{"size": "512"}]}}}}}, {"name": "bert/encoder/layer_19/ffn_layer_2/intermediate/dense_1/Reshape_1/shape", "op": "Const", "attr": {"value": {"tensor": {"dtype": "DT_INT32", "tensorShape": {"dim": [{"size": "3"}]}}}, "dtype": {"type": "DT_INT32"}}}, {"name": "bert/encoder/layer_19/ffn_layer_2/output/dense_1/Reshape/shape", "op": "Const", "attr": {"value": {"tensor": {"dtype": "DT_INT32", "tensorShape": {"dim": [{"size": "2"}]}}}, "dtype": {"type": "DT_INT32"}}}, {"name": "bert/encoder/layer_19/ffn_layer_2/output/dense/kernel", "op": "Const", "attr": {"value": {"tensor": {"dtype": "DT_FLOAT", "tensorShape": {"dim": [{"size": "512"}, {"size": "128"}]}}}, "dtype": {"type": "DT_FLOAT"}}}, {"name": "bert/encoder/layer_19/ffn_layer_2/output/dense/bias", "op": "Const", "attr": {"value": {"tensor": {"dtype": "DT_FLOAT", "tensorShape": {"dim": [{"size": "128"}]}}}, "dtype": {"type": "DT_FLOAT"}}}, {"name": "bert/encoder/layer_19/ffn_layer_2/output/dense_1/Reshape_1/shape", "op": "Const", "attr": {"value": {"tensor": {"dtype": "DT_INT32", "tensorShape": {"dim": [{"size": "3"}]}}}, "dtype": {"type": "DT_INT32"}}}, {"name": "bert/encoder/layer_19/ffn_layer_1/intermediate/dense_1/Reshape/shape", "op": "Const", "attr": {"value": {"tensor": {"dtype": "DT_INT32", "tensorShape": {"dim": [{"size": "2"}]}}}, "dtype": {"type": "DT_INT32"}}}, {"name": "bert/encoder/layer_19/ffn_layer_1/intermediate/dense/kernel", "op": "Const", "attr": {"value": {"tensor": {"dtype": "DT_FLOAT", "tensorShape": {"dim": [{"size": "128"}, {"size": "512"}]}}}, "dtype": {"type": "DT_FLOAT"}}}, {"name": "bert/encoder/layer_19/ffn_layer_1/intermediate/dense/bias", "op": "Const", "attr": {"value": {"tensor": {"dtype": "DT_FLOAT", "tensorShape": {"dim": [{"size": "512"}]}}}, "dtype": {"type": "DT_FLOAT"}}}, {"name": "bert/encoder/layer_19/ffn_layer_1/intermediate/dense_1/Reshape_1/shape", "op": "Const", "attr": {"value": {"tensor": {"dtype": "DT_INT32", "tensorShape": {"dim": [{"size": "3"}]}}}, "dtype": {"type": "DT_INT32"}}}, {"name": "bert/encoder/layer_19/ffn_layer_1/output/dense_1/Reshape/shape", "op": "Const", "attr": {"value": {"tensor": {"dtype": "DT_INT32", "tensorShape": {"dim": [{"size": "2"}]}}}, "dtype": {"type": "DT_INT32"}}}, {"name": "bert/encoder/layer_19/ffn_layer_1/output/dense/kernel", "op": "Const", "attr": {"dtype": {"type": "DT_FLOAT"}, "value": {"tensor": {"dtype": "DT_FLOAT", "tensorShape": {"dim": [{"size": "512"}, {"size": "128"}]}}}}}, {"name": "bert/encoder/layer_19/ffn_layer_1/output/dense/bias", "op": "Const", "attr": {"dtype": {"type": "DT_FLOAT"}, "value": {"tensor": {"dtype": "DT_FLOAT", "tensorShape": {"dim": [{"size": "128"}]}}}}}, {"name": "bert/encoder/layer_19/ffn_layer_1/output/dense_1/Reshape_1/shape", "op": "Const", "attr": {"value": {"tensor": {"dtype": "DT_INT32", "tensorShape": {"dim": [{"size": "3"}]}}}, "dtype": {"type": "DT_INT32"}}}, {"name": "bert/encoder/layer_19/ffn_layer_0/intermediate/dense_1/Reshape/shape", "op": "Const", "attr": {"value": {"tensor": {"dtype": "DT_INT32", "tensorShape": {"dim": [{"size": "2"}]}}}, "dtype": {"type": "DT_INT32"}}}, {"name": "bert/encoder/layer_19/ffn_layer_0/intermediate/dense/kernel", "op": "Const", "attr": {"value": {"tensor": {"dtype": "DT_FLOAT", "tensorShape": {"dim": [{"size": "128"}, {"size": "512"}]}}}, "dtype": {"type": "DT_FLOAT"}}}, {"name": "bert/encoder/layer_19/ffn_layer_0/intermediate/dense/bias", "op": "Const", "attr": {"value": {"tensor": {"dtype": "DT_FLOAT", "tensorShape": {"dim": [{"size": "512"}]}}}, "dtype": {"type": "DT_FLOAT"}}}, {"name": "bert/encoder/layer_19/ffn_layer_0/intermediate/dense_1/Reshape_1/shape", "op": "Const", "attr": {"value": {"tensor": {"dtype": "DT_INT32", "tensorShape": {"dim": [{"size": "3"}]}}}, "dtype": {"type": "DT_INT32"}}}, {"name": "bert/encoder/layer_19/ffn_layer_0/output/dense_1/Reshape/shape", "op": "Const", "attr": {"value": {"tensor": {"dtype": "DT_INT32", "tensorShape": {"dim": [{"size": "2"}]}}}, "dtype": {"type": "DT_INT32"}}}, {"name": "bert/encoder/layer_19/ffn_layer_0/output/dense/kernel", "op": "Const", "attr": {"dtype": {"type": "DT_FLOAT"}, "value": {"tensor": {"dtype": "DT_FLOAT", "tensorShape": {"dim": [{"size": "512"}, {"size": "128"}]}}}}}, {"name": "bert/encoder/layer_19/ffn_layer_0/output/dense/bias", "op": "Const", "attr": {"value": {"tensor": {"dtype": "DT_FLOAT", "tensorShape": {"dim": [{"size": "128"}]}}}, "dtype": {"type": "DT_FLOAT"}}}, {"name": "bert/encoder/layer_19/ffn_layer_0/output/dense_1/Reshape_1/shape", "op": "Const", "attr": {"value": {"tensor": {"dtype": "DT_INT32", "tensorShape": {"dim": [{"size": "3"}]}}}, "dtype": {"type": "DT_INT32"}}}, {"name": "bert/encoder/layer_19/bottleneck/input/FakeLayerNorm/beta", "op": "Const", "attr": {"value": {"tensor": {"dtype": "DT_FLOAT", "tensorShape": {"dim": [{"size": "128"}]}}}, "dtype": {"type": "DT_FLOAT"}}}, {"name": "bert/encoder/layer_19/attention/self/Mul/y", "op": "Const", "attr": {"dtype": {"type": "DT_FLOAT"}, "value": {"tensor": {"dtype": "DT_FLOAT", "tensorShape": {}}}}}, {"name": "bert/encoder/layer_19/attention/self/query_1/Reshape/shape", "op": "Const", "attr": {"value": {"tensor": {"dtype": "DT_INT32", "tensorShape": {"dim": [{"size": "2"}]}}}, "dtype": {"type": "DT_INT32"}}}, {"name": "bert/encoder/layer_19/attention/self/query/kernel", "op": "Const", "attr": {"dtype": {"type": "DT_FLOAT"}, "value": {"tensor": {"dtype": "DT_FLOAT", "tensorShape": {"dim": [{"size": "128"}, {"size": "128"}]}}}}}, {"name": "bert/encoder/layer_19/attention/self/query/bias", "op": "Const", "attr": {"value": {"tensor": {"dtype": "DT_FLOAT", "tensorShape": {"dim": [{"size": "128"}]}}}, "dtype": {"type": "DT_FLOAT"}}}, {"name": "bert/encoder/layer_19/attention/self/query_1/Reshape_1/shape", "op": "Const", "attr": {"value": {"tensor": {"dtype": "DT_INT32", "tensorShape": {"dim": [{"size": "4"}]}}}, "dtype": {"type": "DT_INT32"}}}, {"name": "bert/encoder/layer_19/attention/self/transpose/perm", "op": "Const", "attr": {"value": {"tensor": {"dtype": "DT_INT32", "tensorShape": {"dim": [{"size": "4"}]}}}, "dtype": {"type": "DT_INT32"}}}, {"name": "bert/encoder/layer_19/bottleneck/attention/dense_1/Reshape/shape", "op": "Const", "attr": {"value": {"tensor": {"dtype": "DT_INT32", "tensorShape": {"dim": [{"size": "2"}]}}}, "dtype": {"type": "DT_INT32"}}}, {"name": "bert/encoder/layer_19/bottleneck/attention/dense/kernel", "op": "Const", "attr": {"value": {"tensor": {"dtype": "DT_FLOAT", "tensorShape": {"dim": [{"size": "256"}, {"size": "128"}]}}}, "dtype": {"type": "DT_FLOAT"}}}, {"name": "bert/encoder/layer_19/bottleneck/attention/dense/bias", "op": "Const", "attr": {"value": {"tensor": {"dtype": "DT_FLOAT", "tensorShape": {"dim": [{"size": "128"}]}}}, "dtype": {"type": "DT_FLOAT"}}}, {"name": "bert/encoder/layer_19/bottleneck/attention/dense_1/Reshape_1/shape", "op": "Const", "attr": {"value": {"tensor": {"dtype": "DT_INT32", "tensorShape": {"dim": [{"size": "3"}]}}}, "dtype": {"type": "DT_INT32"}}}, {"name": "bert/encoder/layer_19/bottleneck/attention/FakeLayerNorm/gamma", "op": "Const", "attr": {"value": {"tensor": {"dtype": "DT_FLOAT", "tensorShape": {"dim": [{"size": "128"}]}}}, "dtype": {"type": "DT_FLOAT"}}}, {"name": "bert/encoder/layer_19/bottleneck/attention/FakeLayerNorm/beta", "op": "Const", "attr": {"value": {"tensor": {"dtype": "DT_FLOAT", "tensorShape": {"dim": [{"size": "128"}]}}}, "dtype": {"type": "DT_FLOAT"}}}, {"name": "bert/encoder/layer_19/attention/self/key_1/Reshape/shape", "op": "Const", "attr": {"value": {"tensor": {"dtype": "DT_INT32", "tensorShape": {"dim": [{"size": "2"}]}}}, "dtype": {"type": "DT_INT32"}}}, {"name": "bert/encoder/layer_19/attention/self/key/kernel", "op": "Const", "attr": {"value": {"tensor": {"dtype": "DT_FLOAT", "tensorShape": {"dim": [{"size": "128"}, {"size": "128"}]}}}, "dtype": {"type": "DT_FLOAT"}}}, {"name": "bert/encoder/layer_19/attention/self/key/bias", "op": "Const", "attr": {"value": {"tensor": {"dtype": "DT_FLOAT", "tensorShape": {"dim": [{"size": "128"}]}}}, "dtype": {"type": "DT_FLOAT"}}}, {"name": "bert/encoder/layer_19/attention/self/key_1/Reshape_1/shape", "op": "Const", "attr": {"value": {"tensor": {"dtype": "DT_INT32", "tensorShape": {"dim": [{"size": "4"}]}}}, "dtype": {"type": "DT_INT32"}}}, {"name": "bert/encoder/layer_19/attention/self/transpose_1/perm", "op": "Const", "attr": {"value": {"tensor": {"dtype": "DT_INT32", "tensorShape": {"dim": [{"size": "4"}]}}}, "dtype": {"type": "DT_INT32"}}}, {"name": "bert/encoder/layer_19/attention/self/sub/x", "op": "Const", "attr": {"value": {"tensor": {"dtype": "DT_FLOAT", "tensorShape": {}}}, "dtype": {"type": "DT_FLOAT"}}}, {"name": "bert/encoder/layer_19/attention/self/ExpandDims/dim", "op": "Const", "attr": {"value": {"tensor": {"dtype": "DT_INT32", "tensorShape": {"dim": [{"size": "1"}]}}}, "dtype": {"type": "DT_INT32"}}}, {"name": "bert/encoder/layer_19/attention/self/mul_1/y", "op": "Const", "attr": {"value": {"tensor": {"dtype": "DT_FLOAT", "tensorShape": {}}}, "dtype": {"type": "DT_FLOAT"}}}, {"name": "bert/encoder/layer_19/attention/self/value_1/Reshape/shape", "op": "Const", "attr": {"value": {"tensor": {"dtype": "DT_INT32", "tensorShape": {"dim": [{"size": "2"}]}}}, "dtype": {"type": "DT_INT32"}}}, {"name": "bert/encoder/layer_19/attention/self/value/kernel", "op": "Const", "attr": {"value": {"tensor": {"dtype": "DT_FLOAT", "tensorShape": {"dim": [{"size": "256"}, {"size": "128"}]}}}, "dtype": {"type": "DT_FLOAT"}}}, {"name": "bert/encoder/layer_19/attention/self/value/bias", "op": "Const", "attr": {"value": {"tensor": {"dtype": "DT_FLOAT", "tensorShape": {"dim": [{"size": "128"}]}}}, "dtype": {"type": "DT_FLOAT"}}}, {"name": "bert/encoder/layer_19/attention/self/value_1/Reshape_1/shape", "op": "Const", "attr": {"value": {"tensor": {"dtype": "DT_INT32", "tensorShape": {"dim": [{"size": "4"}]}}}, "dtype": {"type": "DT_INT32"}}}, {"name": "bert/encoder/layer_19/attention/self/transpose_2/perm", "op": "Const", "attr": {"value": {"tensor": {"dtype": "DT_INT32", "tensorShape": {"dim": [{"size": "4"}]}}}, "dtype": {"type": "DT_INT32"}}}, {"name": "bert/encoder/layer_19/attention/self/transpose_3/perm", "op": "Const", "attr": {"dtype": {"type": "DT_INT32"}, "value": {"tensor": {"dtype": "DT_INT32", "tensorShape": {"dim": [{"size": "4"}]}}}}}, {"name": "bert/encoder/layer_19/attention/output/dense_1/Reshape/shape", "op": "Const", "attr": {"value": {"tensor": {"dtype": "DT_INT32", "tensorShape": {"dim": [{"size": "2"}]}}}, "dtype": {"type": "DT_INT32"}}}, {"name": "bert/encoder/layer_19/attention/output/dense/kernel", "op": "Const", "attr": {"value": {"tensor": {"dtype": "DT_FLOAT", "tensorShape": {"dim": [{"size": "128"}, {"size": "128"}]}}}, "dtype": {"type": "DT_FLOAT"}}}, {"name": "bert/encoder/layer_19/attention/output/dense/bias", "op": "Const", "attr": {"value": {"tensor": {"dtype": "DT_FLOAT", "tensorShape": {"dim": [{"size": "128"}]}}}, "dtype": {"type": "DT_FLOAT"}}}, {"name": "bert/encoder/layer_19/attention/output/dense_1/Reshape_1/shape", "op": "Const", "attr": {"dtype": {"type": "DT_INT32"}, "value": {"tensor": {"dtype": "DT_INT32", "tensorShape": {"dim": [{"size": "3"}]}}}}}, {"name": "bert/encoder/layer_19/bottleneck/input/dense_1/Reshape/shape", "op": "Const", "attr": {"value": {"tensor": {"dtype": "DT_INT32", "tensorShape": {"dim": [{"size": "2"}]}}}, "dtype": {"type": "DT_INT32"}}}, {"name": "bert/encoder/layer_19/bottleneck/input/dense/kernel", "op": "Const", "attr": {"value": {"tensor": {"dtype": "DT_FLOAT", "tensorShape": {"dim": [{"size": "256"}, {"size": "128"}]}}}, "dtype": {"type": "DT_FLOAT"}}}, {"name": "bert/encoder/layer_19/bottleneck/input/dense/bias", "op": "Const", "attr": {"value": {"tensor": {"dtype": "DT_FLOAT", "tensorShape": {"dim": [{"size": "128"}]}}}, "dtype": {"type": "DT_FLOAT"}}}, {"name": "bert/encoder/layer_19/bottleneck/input/dense_1/Reshape_1/shape", "op": "Const", "attr": {"value": {"tensor": {"dtype": "DT_INT32", "tensorShape": {"dim": [{"size": "3"}]}}}, "dtype": {"type": "DT_INT32"}}}, {"name": "bert/encoder/layer_19/bottleneck/input/FakeLayerNorm/gamma", "op": "Const", "attr": {"value": {"tensor": {"dtype": "DT_FLOAT", "tensorShape": {"dim": [{"size": "128"}]}}}, "dtype": {"type": "DT_FLOAT"}}}, {"name": "bert/encoder/layer_19/attention/output/FakeLayerNorm/gamma", "op": "Const", "attr": {"dtype": {"type": "DT_FLOAT"}, "value": {"tensor": {"dtype": "DT_FLOAT", "tensorShape": {"dim": [{"size": "128"}]}}}}}, {"name": "bert/encoder/layer_19/attention/output/FakeLayerNorm/beta", "op": "Const", "attr": {"value": {"tensor": {"dtype": "DT_FLOAT", "tensorShape": {"dim": [{"size": "128"}]}}}, "dtype": {"type": "DT_FLOAT"}}}, {"name": "bert/encoder/layer_19/ffn_layer_0/output/FakeLayerNorm/gamma", "op": "Const", "attr": {"value": {"tensor": {"dtype": "DT_FLOAT", "tensorShape": {"dim": [{"size": "128"}]}}}, "dtype": {"type": "DT_FLOAT"}}}, {"name": "bert/encoder/layer_19/ffn_layer_0/output/FakeLayerNorm/beta", "op": "Const", "attr": {"value": {"tensor": {"dtype": "DT_FLOAT", "tensorShape": {"dim": [{"size": "128"}]}}}, "dtype": {"type": "DT_FLOAT"}}}, {"name": "bert/encoder/layer_19/ffn_layer_1/output/FakeLayerNorm/gamma", "op": "Const", "attr": {"dtype": {"type": "DT_FLOAT"}, "value": {"tensor": {"dtype": "DT_FLOAT", "tensorShape": {"dim": [{"size": "128"}]}}}}}, {"name": "bert/encoder/layer_19/ffn_layer_1/output/FakeLayerNorm/beta", "op": "Const", "attr": {"value": {"tensor": {"dtype": "DT_FLOAT", "tensorShape": {"dim": [{"size": "128"}]}}}, "dtype": {"type": "DT_FLOAT"}}}, {"name": "bert/encoder/layer_19/ffn_layer_2/output/FakeLayerNorm/gamma", "op": "Const", "attr": {"value": {"tensor": {"dtype": "DT_FLOAT", "tensorShape": {"dim": [{"size": "128"}]}}}, "dtype": {"type": "DT_FLOAT"}}}, {"name": "bert/encoder/layer_19/ffn_layer_2/output/FakeLayerNorm/beta", "op": "Const", "attr": {"value": {"tensor": {"dtype": "DT_FLOAT", "tensorShape": {"dim": [{"size": "128"}]}}}, "dtype": {"type": "DT_FLOAT"}}}, {"name": "bert/encoder/layer_19/output/FakeLayerNorm/gamma", "op": "Const", "attr": {"value": {"tensor": {"dtype": "DT_FLOAT", "tensorShape": {"dim": [{"size": "128"}]}}}, "dtype": {"type": "DT_FLOAT"}}}, {"name": "bert/encoder/layer_19/output/FakeLayerNorm/beta", "op": "Const", "attr": {"value": {"tensor": {"dtype": "DT_FLOAT", "tensorShape": {"dim": [{"size": "128"}]}}}, "dtype": {"type": "DT_FLOAT"}}}, {"name": "bert/encoder/layer_19/output/bottleneck/dense_1/Reshape/shape", "op": "Const", "attr": {"value": {"tensor": {"dtype": "DT_INT32", "tensorShape": {"dim": [{"size": "2"}]}}}, "dtype": {"type": "DT_INT32"}}}, {"name": "bert/encoder/layer_19/output/bottleneck/dense/kernel", "op": "Const", "attr": {"value": {"tensor": {"dtype": "DT_FLOAT", "tensorShape": {"dim": [{"size": "128"}, {"size": "256"}]}}}, "dtype": {"type": "DT_FLOAT"}}}, {"name": "bert/encoder/layer_19/output/bottleneck/dense/bias", "op": "Const", "attr": {"value": {"tensor": {"dtype": "DT_FLOAT", "tensorShape": {"dim": [{"size": "256"}]}}}, "dtype": {"type": "DT_FLOAT"}}}, {"name": "bert/encoder/layer_19/output/bottleneck/dense_1/Reshape_1/shape", "op": "Const", "attr": {"value": {"tensor": {"dtype": "DT_INT32", "tensorShape": {"dim": [{"size": "3"}]}}}, "dtype": {"type": "DT_INT32"}}}, {"name": "bert/encoder/layer_18/intermediate/dense_1/Reshape/shape", "op": "Const", "attr": {"value": {"tensor": {"dtype": "DT_INT32", "tensorShape": {"dim": [{"size": "2"}]}}}, "dtype": {"type": "DT_INT32"}}}, {"name": "bert/encoder/layer_18/intermediate/dense/kernel", "op": "Const", "attr": {"value": {"tensor": {"dtype": "DT_FLOAT", "tensorShape": {"dim": [{"size": "128"}, {"size": "512"}]}}}, "dtype": {"type": "DT_FLOAT"}}}, {"name": "bert/encoder/layer_18/intermediate/dense/bias", "op": "Const", "attr": {"value": {"tensor": {"dtype": "DT_FLOAT", "tensorShape": {"dim": [{"size": "512"}]}}}, "dtype": {"type": "DT_FLOAT"}}}, {"name": "bert/encoder/layer_18/intermediate/dense_1/Reshape_1/shape", "op": "Const", "attr": {"value": {"tensor": {"dtype": "DT_INT32", "tensorShape": {"dim": [{"size": "3"}]}}}, "dtype": {"type": "DT_INT32"}}}, {"name": "bert/encoder/layer_18/output/dense_1/Reshape/shape", "op": "Const", "attr": {"dtype": {"type": "DT_INT32"}, "value": {"tensor": {"dtype": "DT_INT32", "tensorShape": {"dim": [{"size": "2"}]}}}}}, {"name": "bert/encoder/layer_18/output/dense/kernel", "op": "Const", "attr": {"value": {"tensor": {"dtype": "DT_FLOAT", "tensorShape": {"dim": [{"size": "512"}, {"size": "128"}]}}}, "dtype": {"type": "DT_FLOAT"}}}, {"name": "bert/encoder/layer_18/output/dense/bias", "op": "Const", "attr": {"value": {"tensor": {"dtype": "DT_FLOAT", "tensorShape": {"dim": [{"size": "128"}]}}}, "dtype": {"type": "DT_FLOAT"}}}, {"name": "bert/encoder/layer_18/output/dense_1/Reshape_1/shape", "op": "Const", "attr": {"value": {"tensor": {"dtype": "DT_INT32", "tensorShape": {"dim": [{"size": "3"}]}}}, "dtype": {"type": "DT_INT32"}}}, {"name": "bert/encoder/layer_18/ffn_layer_2/intermediate/dense_1/Reshape/shape", "op": "Const", "attr": {"value": {"tensor": {"dtype": "DT_INT32", "tensorShape": {"dim": [{"size": "2"}]}}}, "dtype": {"type": "DT_INT32"}}}, {"name": "bert/encoder/layer_18/ffn_layer_2/intermediate/dense/kernel", "op": "Const", "attr": {"value": {"tensor": {"dtype": "DT_FLOAT", "tensorShape": {"dim": [{"size": "128"}, {"size": "512"}]}}}, "dtype": {"type": "DT_FLOAT"}}}, {"name": "bert/encoder/layer_18/ffn_layer_2/intermediate/dense/bias", "op": "Const", "attr": {"value": {"tensor": {"dtype": "DT_FLOAT", "tensorShape": {"dim": [{"size": "512"}]}}}, "dtype": {"type": "DT_FLOAT"}}}, {"name": "bert/encoder/layer_18/ffn_layer_2/intermediate/dense_1/Reshape_1/shape", "op": "Const", "attr": {"value": {"tensor": {"dtype": "DT_INT32", "tensorShape": {"dim": [{"size": "3"}]}}}, "dtype": {"type": "DT_INT32"}}}, {"name": "bert/encoder/layer_18/ffn_layer_2/output/dense_1/Reshape/shape", "op": "Const", "attr": {"value": {"tensor": {"dtype": "DT_INT32", "tensorShape": {"dim": [{"size": "2"}]}}}, "dtype": {"type": "DT_INT32"}}}, {"name": "bert/encoder/layer_18/ffn_layer_2/output/dense/kernel", "op": "Const", "attr": {"value": {"tensor": {"dtype": "DT_FLOAT", "tensorShape": {"dim": [{"size": "512"}, {"size": "128"}]}}}, "dtype": {"type": "DT_FLOAT"}}}, {"name": "bert/encoder/layer_18/ffn_layer_2/output/dense/bias", "op": "Const", "attr": {"value": {"tensor": {"dtype": "DT_FLOAT", "tensorShape": {"dim": [{"size": "128"}]}}}, "dtype": {"type": "DT_FLOAT"}}}, {"name": "bert/encoder/layer_18/ffn_layer_2/output/dense_1/Reshape_1/shape", "op": "Const", "attr": {"value": {"tensor": {"dtype": "DT_INT32", "tensorShape": {"dim": [{"size": "3"}]}}}, "dtype": {"type": "DT_INT32"}}}, {"name": "bert/encoder/layer_18/ffn_layer_1/intermediate/dense_1/Reshape/shape", "op": "Const", "attr": {"value": {"tensor": {"dtype": "DT_INT32", "tensorShape": {"dim": [{"size": "2"}]}}}, "dtype": {"type": "DT_INT32"}}}, {"name": "bert/encoder/layer_18/ffn_layer_1/intermediate/dense/kernel", "op": "Const", "attr": {"value": {"tensor": {"dtype": "DT_FLOAT", "tensorShape": {"dim": [{"size": "128"}, {"size": "512"}]}}}, "dtype": {"type": "DT_FLOAT"}}}, {"name": "bert/encoder/layer_18/ffn_layer_1/intermediate/dense/bias", "op": "Const", "attr": {"value": {"tensor": {"dtype": "DT_FLOAT", "tensorShape": {"dim": [{"size": "512"}]}}}, "dtype": {"type": "DT_FLOAT"}}}, {"name": "bert/encoder/layer_18/ffn_layer_1/intermediate/dense_1/Reshape_1/shape", "op": "Const", "attr": {"dtype": {"type": "DT_INT32"}, "value": {"tensor": {"dtype": "DT_INT32", "tensorShape": {"dim": [{"size": "3"}]}}}}}, {"name": "bert/encoder/layer_18/ffn_layer_1/output/dense_1/Reshape/shape", "op": "Const", "attr": {"value": {"tensor": {"dtype": "DT_INT32", "tensorShape": {"dim": [{"size": "2"}]}}}, "dtype": {"type": "DT_INT32"}}}, {"name": "bert/encoder/layer_18/ffn_layer_1/output/dense/kernel", "op": "Const", "attr": {"value": {"tensor": {"dtype": "DT_FLOAT", "tensorShape": {"dim": [{"size": "512"}, {"size": "128"}]}}}, "dtype": {"type": "DT_FLOAT"}}}, {"name": "bert/encoder/layer_18/ffn_layer_1/output/dense/bias", "op": "Const", "attr": {"value": {"tensor": {"dtype": "DT_FLOAT", "tensorShape": {"dim": [{"size": "128"}]}}}, "dtype": {"type": "DT_FLOAT"}}}, {"name": "bert/encoder/layer_18/ffn_layer_1/output/dense_1/Reshape_1/shape", "op": "Const", "attr": {"value": {"tensor": {"dtype": "DT_INT32", "tensorShape": {"dim": [{"size": "3"}]}}}, "dtype": {"type": "DT_INT32"}}}, {"name": "bert/encoder/layer_18/ffn_layer_0/intermediate/dense_1/Reshape/shape", "op": "Const", "attr": {"value": {"tensor": {"dtype": "DT_INT32", "tensorShape": {"dim": [{"size": "2"}]}}}, "dtype": {"type": "DT_INT32"}}}, {"name": "bert/encoder/layer_18/ffn_layer_0/intermediate/dense/kernel", "op": "Const", "attr": {"value": {"tensor": {"dtype": "DT_FLOAT", "tensorShape": {"dim": [{"size": "128"}, {"size": "512"}]}}}, "dtype": {"type": "DT_FLOAT"}}}, {"name": "bert/encoder/layer_18/ffn_layer_0/intermediate/dense/bias", "op": "Const", "attr": {"value": {"tensor": {"dtype": "DT_FLOAT", "tensorShape": {"dim": [{"size": "512"}]}}}, "dtype": {"type": "DT_FLOAT"}}}, {"name": "bert/encoder/layer_18/ffn_layer_0/intermediate/dense_1/Reshape_1/shape", "op": "Const", "attr": {"value": {"tensor": {"dtype": "DT_INT32", "tensorShape": {"dim": [{"size": "3"}]}}}, "dtype": {"type": "DT_INT32"}}}, {"name": "bert/encoder/layer_18/ffn_layer_0/output/dense_1/Reshape/shape", "op": "Const", "attr": {"value": {"tensor": {"dtype": "DT_INT32", "tensorShape": {"dim": [{"size": "2"}]}}}, "dtype": {"type": "DT_INT32"}}}, {"name": "bert/encoder/layer_18/ffn_layer_0/output/dense/kernel", "op": "Const", "attr": {"value": {"tensor": {"dtype": "DT_FLOAT", "tensorShape": {"dim": [{"size": "512"}, {"size": "128"}]}}}, "dtype": {"type": "DT_FLOAT"}}}, {"name": "bert/encoder/layer_18/ffn_layer_0/output/dense/bias", "op": "Const", "attr": {"value": {"tensor": {"dtype": "DT_FLOAT", "tensorShape": {"dim": [{"size": "128"}]}}}, "dtype": {"type": "DT_FLOAT"}}}, {"name": "bert/encoder/layer_18/ffn_layer_0/output/dense_1/Reshape_1/shape", "op": "Const", "attr": {"value": {"tensor": {"dtype": "DT_INT32", "tensorShape": {"dim": [{"size": "3"}]}}}, "dtype": {"type": "DT_INT32"}}}, {"name": "bert/encoder/layer_18/bottleneck/input/FakeLayerNorm/beta", "op": "Const", "attr": {"value": {"tensor": {"dtype": "DT_FLOAT", "tensorShape": {"dim": [{"size": "128"}]}}}, "dtype": {"type": "DT_FLOAT"}}}, {"name": "bert/encoder/layer_18/attention/self/Mul/y", "op": "Const", "attr": {"value": {"tensor": {"dtype": "DT_FLOAT", "tensorShape": {}}}, "dtype": {"type": "DT_FLOAT"}}}, {"name": "bert/encoder/layer_18/attention/self/query_1/Reshape/shape", "op": "Const", "attr": {"value": {"tensor": {"dtype": "DT_INT32", "tensorShape": {"dim": [{"size": "2"}]}}}, "dtype": {"type": "DT_INT32"}}}, {"name": "bert/encoder/layer_18/attention/self/query/kernel", "op": "Const", "attr": {"value": {"tensor": {"dtype": "DT_FLOAT", "tensorShape": {"dim": [{"size": "128"}, {"size": "128"}]}}}, "dtype": {"type": "DT_FLOAT"}}}, {"name": "bert/encoder/layer_18/attention/self/query/bias", "op": "Const", "attr": {"value": {"tensor": {"dtype": "DT_FLOAT", "tensorShape": {"dim": [{"size": "128"}]}}}, "dtype": {"type": "DT_FLOAT"}}}, {"name": "bert/encoder/layer_18/attention/self/query_1/Reshape_1/shape", "op": "Const", "attr": {"value": {"tensor": {"dtype": "DT_INT32", "tensorShape": {"dim": [{"size": "4"}]}}}, "dtype": {"type": "DT_INT32"}}}, {"name": "bert/encoder/layer_18/attention/self/transpose/perm", "op": "Const", "attr": {"value": {"tensor": {"dtype": "DT_INT32", "tensorShape": {"dim": [{"size": "4"}]}}}, "dtype": {"type": "DT_INT32"}}}, {"name": "bert/encoder/layer_18/bottleneck/attention/dense_1/Reshape/shape", "op": "Const", "attr": {"value": {"tensor": {"dtype": "DT_INT32", "tensorShape": {"dim": [{"size": "2"}]}}}, "dtype": {"type": "DT_INT32"}}}, {"name": "bert/encoder/layer_18/bottleneck/attention/dense/kernel", "op": "Const", "attr": {"value": {"tensor": {"dtype": "DT_FLOAT", "tensorShape": {"dim": [{"size": "256"}, {"size": "128"}]}}}, "dtype": {"type": "DT_FLOAT"}}}, {"name": "bert/encoder/layer_18/bottleneck/attention/dense/bias", "op": "Const", "attr": {"value": {"tensor": {"dtype": "DT_FLOAT", "tensorShape": {"dim": [{"size": "128"}]}}}, "dtype": {"type": "DT_FLOAT"}}}, {"name": "bert/encoder/layer_18/bottleneck/attention/dense_1/Reshape_1/shape", "op": "Const", "attr": {"dtype": {"type": "DT_INT32"}, "value": {"tensor": {"dtype": "DT_INT32", "tensorShape": {"dim": [{"size": "3"}]}}}}}, {"name": "bert/encoder/layer_18/bottleneck/attention/FakeLayerNorm/gamma", "op": "Const", "attr": {"dtype": {"type": "DT_FLOAT"}, "value": {"tensor": {"dtype": "DT_FLOAT", "tensorShape": {"dim": [{"size": "128"}]}}}}}, {"name": "bert/encoder/layer_18/bottleneck/attention/FakeLayerNorm/beta", "op": "Const", "attr": {"value": {"tensor": {"dtype": "DT_FLOAT", "tensorShape": {"dim": [{"size": "128"}]}}}, "dtype": {"type": "DT_FLOAT"}}}, {"name": "bert/encoder/layer_18/attention/self/key_1/Reshape/shape", "op": "Const", "attr": {"value": {"tensor": {"dtype": "DT_INT32", "tensorShape": {"dim": [{"size": "2"}]}}}, "dtype": {"type": "DT_INT32"}}}, {"name": "bert/encoder/layer_18/attention/self/key/kernel", "op": "Const", "attr": {"value": {"tensor": {"dtype": "DT_FLOAT", "tensorShape": {"dim": [{"size": "128"}, {"size": "128"}]}}}, "dtype": {"type": "DT_FLOAT"}}}, {"name": "bert/encoder/layer_18/attention/self/key/bias", "op": "Const", "attr": {"value": {"tensor": {"dtype": "DT_FLOAT", "tensorShape": {"dim": [{"size": "128"}]}}}, "dtype": {"type": "DT_FLOAT"}}}, {"name": "bert/encoder/layer_18/attention/self/key_1/Reshape_1/shape", "op": "Const", "attr": {"value": {"tensor": {"dtype": "DT_INT32", "tensorShape": {"dim": [{"size": "4"}]}}}, "dtype": {"type": "DT_INT32"}}}, {"name": "bert/encoder/layer_18/attention/self/transpose_1/perm", "op": "Const", "attr": {"value": {"tensor": {"dtype": "DT_INT32", "tensorShape": {"dim": [{"size": "4"}]}}}, "dtype": {"type": "DT_INT32"}}}, {"name": "bert/encoder/layer_18/attention/self/sub/x", "op": "Const", "attr": {"value": {"tensor": {"dtype": "DT_FLOAT", "tensorShape": {}}}, "dtype": {"type": "DT_FLOAT"}}}, {"name": "bert/encoder/layer_18/attention/self/ExpandDims/dim", "op": "Const", "attr": {"dtype": {"type": "DT_INT32"}, "value": {"tensor": {"dtype": "DT_INT32", "tensorShape": {"dim": [{"size": "1"}]}}}}}, {"name": "bert/encoder/layer_18/attention/self/mul_1/y", "op": "Const", "attr": {"value": {"tensor": {"dtype": "DT_FLOAT", "tensorShape": {}}}, "dtype": {"type": "DT_FLOAT"}}}, {"name": "bert/encoder/layer_18/attention/self/value_1/Reshape/shape", "op": "Const", "attr": {"dtype": {"type": "DT_INT32"}, "value": {"tensor": {"dtype": "DT_INT32", "tensorShape": {"dim": [{"size": "2"}]}}}}}, {"name": "bert/encoder/layer_18/attention/self/value/kernel", "op": "Const", "attr": {"value": {"tensor": {"dtype": "DT_FLOAT", "tensorShape": {"dim": [{"size": "256"}, {"size": "128"}]}}}, "dtype": {"type": "DT_FLOAT"}}}, {"name": "bert/encoder/layer_18/attention/self/value/bias", "op": "Const", "attr": {"value": {"tensor": {"dtype": "DT_FLOAT", "tensorShape": {"dim": [{"size": "128"}]}}}, "dtype": {"type": "DT_FLOAT"}}}, {"name": "bert/encoder/layer_18/attention/self/value_1/Reshape_1/shape", "op": "Const", "attr": {"value": {"tensor": {"dtype": "DT_INT32", "tensorShape": {"dim": [{"size": "4"}]}}}, "dtype": {"type": "DT_INT32"}}}, {"name": "bert/encoder/layer_18/attention/self/transpose_2/perm", "op": "Const", "attr": {"value": {"tensor": {"dtype": "DT_INT32", "tensorShape": {"dim": [{"size": "4"}]}}}, "dtype": {"type": "DT_INT32"}}}, {"name": "bert/encoder/layer_18/attention/self/transpose_3/perm", "op": "Const", "attr": {"value": {"tensor": {"dtype": "DT_INT32", "tensorShape": {"dim": [{"size": "4"}]}}}, "dtype": {"type": "DT_INT32"}}}, {"name": "bert/encoder/layer_18/attention/output/dense_1/Reshape/shape", "op": "Const", "attr": {"value": {"tensor": {"dtype": "DT_INT32", "tensorShape": {"dim": [{"size": "2"}]}}}, "dtype": {"type": "DT_INT32"}}}, {"name": "bert/encoder/layer_18/attention/output/dense/kernel", "op": "Const", "attr": {"value": {"tensor": {"dtype": "DT_FLOAT", "tensorShape": {"dim": [{"size": "128"}, {"size": "128"}]}}}, "dtype": {"type": "DT_FLOAT"}}}, {"name": "bert/encoder/layer_18/attention/output/dense/bias", "op": "Const", "attr": {"value": {"tensor": {"dtype": "DT_FLOAT", "tensorShape": {"dim": [{"size": "128"}]}}}, "dtype": {"type": "DT_FLOAT"}}}, {"name": "bert/encoder/layer_18/attention/output/dense_1/Reshape_1/shape", "op": "Const", "attr": {"value": {"tensor": {"dtype": "DT_INT32", "tensorShape": {"dim": [{"size": "3"}]}}}, "dtype": {"type": "DT_INT32"}}}, {"name": "bert/encoder/layer_18/bottleneck/input/dense_1/Reshape/shape", "op": "Const", "attr": {"value": {"tensor": {"dtype": "DT_INT32", "tensorShape": {"dim": [{"size": "2"}]}}}, "dtype": {"type": "DT_INT32"}}}, {"name": "bert/encoder/layer_18/bottleneck/input/dense/kernel", "op": "Const", "attr": {"value": {"tensor": {"dtype": "DT_FLOAT", "tensorShape": {"dim": [{"size": "256"}, {"size": "128"}]}}}, "dtype": {"type": "DT_FLOAT"}}}, {"name": "bert/encoder/layer_18/bottleneck/input/dense/bias", "op": "Const", "attr": {"value": {"tensor": {"dtype": "DT_FLOAT", "tensorShape": {"dim": [{"size": "128"}]}}}, "dtype": {"type": "DT_FLOAT"}}}, {"name": "bert/encoder/layer_18/bottleneck/input/dense_1/Reshape_1/shape", "op": "Const", "attr": {"value": {"tensor": {"dtype": "DT_INT32", "tensorShape": {"dim": [{"size": "3"}]}}}, "dtype": {"type": "DT_INT32"}}}, {"name": "bert/encoder/layer_18/bottleneck/input/FakeLayerNorm/gamma", "op": "Const", "attr": {"value": {"tensor": {"dtype": "DT_FLOAT", "tensorShape": {"dim": [{"size": "128"}]}}}, "dtype": {"type": "DT_FLOAT"}}}, {"name": "bert/encoder/layer_18/attention/output/FakeLayerNorm/gamma", "op": "Const", "attr": {"value": {"tensor": {"dtype": "DT_FLOAT", "tensorShape": {"dim": [{"size": "128"}]}}}, "dtype": {"type": "DT_FLOAT"}}}, {"name": "bert/encoder/layer_18/attention/output/FakeLayerNorm/beta", "op": "Const", "attr": {"value": {"tensor": {"dtype": "DT_FLOAT", "tensorShape": {"dim": [{"size": "128"}]}}}, "dtype": {"type": "DT_FLOAT"}}}, {"name": "bert/encoder/layer_18/ffn_layer_0/output/FakeLayerNorm/gamma", "op": "Const", "attr": {"dtype": {"type": "DT_FLOAT"}, "value": {"tensor": {"dtype": "DT_FLOAT", "tensorShape": {"dim": [{"size": "128"}]}}}}}, {"name": "bert/encoder/layer_18/ffn_layer_0/output/FakeLayerNorm/beta", "op": "Const", "attr": {"value": {"tensor": {"dtype": "DT_FLOAT", "tensorShape": {"dim": [{"size": "128"}]}}}, "dtype": {"type": "DT_FLOAT"}}}, {"name": "bert/encoder/layer_18/ffn_layer_1/output/FakeLayerNorm/gamma", "op": "Const", "attr": {"value": {"tensor": {"dtype": "DT_FLOAT", "tensorShape": {"dim": [{"size": "128"}]}}}, "dtype": {"type": "DT_FLOAT"}}}, {"name": "bert/encoder/layer_18/ffn_layer_1/output/FakeLayerNorm/beta", "op": "Const", "attr": {"value": {"tensor": {"dtype": "DT_FLOAT", "tensorShape": {"dim": [{"size": "128"}]}}}, "dtype": {"type": "DT_FLOAT"}}}, {"name": "bert/encoder/layer_18/ffn_layer_2/output/FakeLayerNorm/gamma", "op": "Const", "attr": {"value": {"tensor": {"dtype": "DT_FLOAT", "tensorShape": {"dim": [{"size": "128"}]}}}, "dtype": {"type": "DT_FLOAT"}}}, {"name": "bert/encoder/layer_18/ffn_layer_2/output/FakeLayerNorm/beta", "op": "Const", "attr": {"value": {"tensor": {"dtype": "DT_FLOAT", "tensorShape": {"dim": [{"size": "128"}]}}}, "dtype": {"type": "DT_FLOAT"}}}, {"name": "bert/encoder/layer_18/output/FakeLayerNorm/gamma", "op": "Const", "attr": {"value": {"tensor": {"dtype": "DT_FLOAT", "tensorShape": {"dim": [{"size": "128"}]}}}, "dtype": {"type": "DT_FLOAT"}}}, {"name": "bert/encoder/layer_18/output/FakeLayerNorm/beta", "op": "Const", "attr": {"value": {"tensor": {"dtype": "DT_FLOAT", "tensorShape": {"dim": [{"size": "128"}]}}}, "dtype": {"type": "DT_FLOAT"}}}, {"name": "bert/encoder/layer_18/output/bottleneck/dense_1/Reshape/shape", "op": "Const", "attr": {"value": {"tensor": {"dtype": "DT_INT32", "tensorShape": {"dim": [{"size": "2"}]}}}, "dtype": {"type": "DT_INT32"}}}, {"name": "bert/encoder/layer_18/output/bottleneck/dense/kernel", "op": "Const", "attr": {"value": {"tensor": {"dtype": "DT_FLOAT", "tensorShape": {"dim": [{"size": "128"}, {"size": "256"}]}}}, "dtype": {"type": "DT_FLOAT"}}}, {"name": "bert/encoder/layer_18/output/bottleneck/dense/bias", "op": "Const", "attr": {"value": {"tensor": {"dtype": "DT_FLOAT", "tensorShape": {"dim": [{"size": "256"}]}}}, "dtype": {"type": "DT_FLOAT"}}}, {"name": "bert/encoder/layer_18/output/bottleneck/dense_1/Reshape_1/shape", "op": "Const", "attr": {"value": {"tensor": {"dtype": "DT_INT32", "tensorShape": {"dim": [{"size": "3"}]}}}, "dtype": {"type": "DT_INT32"}}}, {"name": "bert/encoder/layer_17/intermediate/dense_1/Reshape/shape", "op": "Const", "attr": {"value": {"tensor": {"dtype": "DT_INT32", "tensorShape": {"dim": [{"size": "2"}]}}}, "dtype": {"type": "DT_INT32"}}}, {"name": "bert/encoder/layer_17/intermediate/dense/kernel", "op": "Const", "attr": {"value": {"tensor": {"dtype": "DT_FLOAT", "tensorShape": {"dim": [{"size": "128"}, {"size": "512"}]}}}, "dtype": {"type": "DT_FLOAT"}}}, {"name": "bert/encoder/layer_17/intermediate/dense/bias", "op": "Const", "attr": {"value": {"tensor": {"dtype": "DT_FLOAT", "tensorShape": {"dim": [{"size": "512"}]}}}, "dtype": {"type": "DT_FLOAT"}}}, {"name": "bert/encoder/layer_17/intermediate/dense_1/Reshape_1/shape", "op": "Const", "attr": {"value": {"tensor": {"dtype": "DT_INT32", "tensorShape": {"dim": [{"size": "3"}]}}}, "dtype": {"type": "DT_INT32"}}}, {"name": "bert/encoder/layer_17/output/dense_1/Reshape/shape", "op": "Const", "attr": {"dtype": {"type": "DT_INT32"}, "value": {"tensor": {"dtype": "DT_INT32", "tensorShape": {"dim": [{"size": "2"}]}}}}}, {"name": "bert/encoder/layer_17/output/dense/kernel", "op": "Const", "attr": {"value": {"tensor": {"dtype": "DT_FLOAT", "tensorShape": {"dim": [{"size": "512"}, {"size": "128"}]}}}, "dtype": {"type": "DT_FLOAT"}}}, {"name": "bert/encoder/layer_17/output/dense/bias", "op": "Const", "attr": {"value": {"tensor": {"dtype": "DT_FLOAT", "tensorShape": {"dim": [{"size": "128"}]}}}, "dtype": {"type": "DT_FLOAT"}}}, {"name": "bert/encoder/layer_17/output/dense_1/Reshape_1/shape", "op": "Const", "attr": {"value": {"tensor": {"dtype": "DT_INT32", "tensorShape": {"dim": [{"size": "3"}]}}}, "dtype": {"type": "DT_INT32"}}}, {"name": "bert/encoder/layer_17/ffn_layer_2/intermediate/dense_1/Reshape/shape", "op": "Const", "attr": {"value": {"tensor": {"dtype": "DT_INT32", "tensorShape": {"dim": [{"size": "2"}]}}}, "dtype": {"type": "DT_INT32"}}}, {"name": "bert/encoder/layer_17/ffn_layer_2/intermediate/dense/kernel", "op": "Const", "attr": {"value": {"tensor": {"dtype": "DT_FLOAT", "tensorShape": {"dim": [{"size": "128"}, {"size": "512"}]}}}, "dtype": {"type": "DT_FLOAT"}}}, {"name": "bert/encoder/layer_17/ffn_layer_2/intermediate/dense/bias", "op": "Const", "attr": {"value": {"tensor": {"dtype": "DT_FLOAT", "tensorShape": {"dim": [{"size": "512"}]}}}, "dtype": {"type": "DT_FLOAT"}}}, {"name": "bert/encoder/layer_17/ffn_layer_2/intermediate/dense_1/Reshape_1/shape", "op": "Const", "attr": {"value": {"tensor": {"dtype": "DT_INT32", "tensorShape": {"dim": [{"size": "3"}]}}}, "dtype": {"type": "DT_INT32"}}}, {"name": "bert/encoder/layer_17/ffn_layer_2/output/dense_1/Reshape/shape", "op": "Const", "attr": {"value": {"tensor": {"dtype": "DT_INT32", "tensorShape": {"dim": [{"size": "2"}]}}}, "dtype": {"type": "DT_INT32"}}}, {"name": "bert/encoder/layer_17/ffn_layer_2/output/dense/kernel", "op": "Const", "attr": {"value": {"tensor": {"dtype": "DT_FLOAT", "tensorShape": {"dim": [{"size": "512"}, {"size": "128"}]}}}, "dtype": {"type": "DT_FLOAT"}}}, {"name": "bert/encoder/layer_17/ffn_layer_2/output/dense/bias", "op": "Const", "attr": {"dtype": {"type": "DT_FLOAT"}, "value": {"tensor": {"dtype": "DT_FLOAT", "tensorShape": {"dim": [{"size": "128"}]}}}}}, {"name": "bert/encoder/layer_17/ffn_layer_2/output/dense_1/Reshape_1/shape", "op": "Const", "attr": {"value": {"tensor": {"dtype": "DT_INT32", "tensorShape": {"dim": [{"size": "3"}]}}}, "dtype": {"type": "DT_INT32"}}}, {"name": "bert/encoder/layer_17/ffn_layer_1/intermediate/dense_1/Reshape/shape", "op": "Const", "attr": {"value": {"tensor": {"dtype": "DT_INT32", "tensorShape": {"dim": [{"size": "2"}]}}}, "dtype": {"type": "DT_INT32"}}}, {"name": "bert/encoder/layer_17/ffn_layer_1/intermediate/dense/kernel", "op": "Const", "attr": {"value": {"tensor": {"dtype": "DT_FLOAT", "tensorShape": {"dim": [{"size": "128"}, {"size": "512"}]}}}, "dtype": {"type": "DT_FLOAT"}}}, {"name": "bert/encoder/layer_17/ffn_layer_1/intermediate/dense/bias", "op": "Const", "attr": {"value": {"tensor": {"dtype": "DT_FLOAT", "tensorShape": {"dim": [{"size": "512"}]}}}, "dtype": {"type": "DT_FLOAT"}}}, {"name": "bert/encoder/layer_17/ffn_layer_1/intermediate/dense_1/Reshape_1/shape", "op": "Const", "attr": {"value": {"tensor": {"dtype": "DT_INT32", "tensorShape": {"dim": [{"size": "3"}]}}}, "dtype": {"type": "DT_INT32"}}}, {"name": "bert/encoder/layer_17/ffn_layer_1/output/dense_1/Reshape/shape", "op": "Const", "attr": {"value": {"tensor": {"dtype": "DT_INT32", "tensorShape": {"dim": [{"size": "2"}]}}}, "dtype": {"type": "DT_INT32"}}}, {"name": "bert/encoder/layer_17/ffn_layer_1/output/dense/kernel", "op": "Const", "attr": {"value": {"tensor": {"dtype": "DT_FLOAT", "tensorShape": {"dim": [{"size": "512"}, {"size": "128"}]}}}, "dtype": {"type": "DT_FLOAT"}}}, {"name": "bert/encoder/layer_17/ffn_layer_1/output/dense/bias", "op": "Const", "attr": {"value": {"tensor": {"dtype": "DT_FLOAT", "tensorShape": {"dim": [{"size": "128"}]}}}, "dtype": {"type": "DT_FLOAT"}}}, {"name": "bert/encoder/layer_17/ffn_layer_1/output/dense_1/Reshape_1/shape", "op": "Const", "attr": {"value": {"tensor": {"dtype": "DT_INT32", "tensorShape": {"dim": [{"size": "3"}]}}}, "dtype": {"type": "DT_INT32"}}}, {"name": "bert/encoder/layer_17/ffn_layer_0/intermediate/dense_1/Reshape/shape", "op": "Const", "attr": {"dtype": {"type": "DT_INT32"}, "value": {"tensor": {"dtype": "DT_INT32", "tensorShape": {"dim": [{"size": "2"}]}}}}}, {"name": "bert/encoder/layer_17/ffn_layer_0/intermediate/dense/kernel", "op": "Const", "attr": {"value": {"tensor": {"dtype": "DT_FLOAT", "tensorShape": {"dim": [{"size": "128"}, {"size": "512"}]}}}, "dtype": {"type": "DT_FLOAT"}}}, {"name": "bert/encoder/layer_17/ffn_layer_0/intermediate/dense/bias", "op": "Const", "attr": {"value": {"tensor": {"dtype": "DT_FLOAT", "tensorShape": {"dim": [{"size": "512"}]}}}, "dtype": {"type": "DT_FLOAT"}}}, {"name": "bert/encoder/layer_17/ffn_layer_0/intermediate/dense_1/Reshape_1/shape", "op": "Const", "attr": {"value": {"tensor": {"dtype": "DT_INT32", "tensorShape": {"dim": [{"size": "3"}]}}}, "dtype": {"type": "DT_INT32"}}}, {"name": "bert/encoder/layer_17/ffn_layer_0/output/dense_1/Reshape/shape", "op": "Const", "attr": {"value": {"tensor": {"dtype": "DT_INT32", "tensorShape": {"dim": [{"size": "2"}]}}}, "dtype": {"type": "DT_INT32"}}}, {"name": "bert/encoder/layer_17/ffn_layer_0/output/dense/kernel", "op": "Const", "attr": {"value": {"tensor": {"dtype": "DT_FLOAT", "tensorShape": {"dim": [{"size": "512"}, {"size": "128"}]}}}, "dtype": {"type": "DT_FLOAT"}}}, {"name": "bert/encoder/layer_17/ffn_layer_0/output/dense/bias", "op": "Const", "attr": {"value": {"tensor": {"dtype": "DT_FLOAT", "tensorShape": {"dim": [{"size": "128"}]}}}, "dtype": {"type": "DT_FLOAT"}}}, {"name": "bert/encoder/layer_17/ffn_layer_0/output/dense_1/Reshape_1/shape", "op": "Const", "attr": {"value": {"tensor": {"dtype": "DT_INT32", "tensorShape": {"dim": [{"size": "3"}]}}}, "dtype": {"type": "DT_INT32"}}}, {"name": "bert/encoder/layer_17/bottleneck/input/FakeLayerNorm/beta", "op": "Const", "attr": {"value": {"tensor": {"dtype": "DT_FLOAT", "tensorShape": {"dim": [{"size": "128"}]}}}, "dtype": {"type": "DT_FLOAT"}}}, {"name": "bert/encoder/layer_17/attention/self/Mul/y", "op": "Const", "attr": {"value": {"tensor": {"dtype": "DT_FLOAT", "tensorShape": {}}}, "dtype": {"type": "DT_FLOAT"}}}, {"name": "bert/encoder/layer_17/attention/self/query_1/Reshape/shape", "op": "Const", "attr": {"value": {"tensor": {"dtype": "DT_INT32", "tensorShape": {"dim": [{"size": "2"}]}}}, "dtype": {"type": "DT_INT32"}}}, {"name": "bert/encoder/layer_17/attention/self/query/kernel", "op": "Const", "attr": {"value": {"tensor": {"dtype": "DT_FLOAT", "tensorShape": {"dim": [{"size": "128"}, {"size": "128"}]}}}, "dtype": {"type": "DT_FLOAT"}}}, {"name": "bert/encoder/layer_17/attention/self/query/bias", "op": "Const", "attr": {"value": {"tensor": {"dtype": "DT_FLOAT", "tensorShape": {"dim": [{"size": "128"}]}}}, "dtype": {"type": "DT_FLOAT"}}}, {"name": "bert/encoder/layer_17/attention/self/query_1/Reshape_1/shape", "op": "Const", "attr": {"value": {"tensor": {"dtype": "DT_INT32", "tensorShape": {"dim": [{"size": "4"}]}}}, "dtype": {"type": "DT_INT32"}}}, {"name": "bert/encoder/layer_17/attention/self/transpose/perm", "op": "Const", "attr": {"value": {"tensor": {"dtype": "DT_INT32", "tensorShape": {"dim": [{"size": "4"}]}}}, "dtype": {"type": "DT_INT32"}}}, {"name": "bert/encoder/layer_17/bottleneck/attention/dense_1/Reshape/shape", "op": "Const", "attr": {"dtype": {"type": "DT_INT32"}, "value": {"tensor": {"dtype": "DT_INT32", "tensorShape": {"dim": [{"size": "2"}]}}}}}, {"name": "bert/encoder/layer_17/bottleneck/attention/dense/kernel", "op": "Const", "attr": {"value": {"tensor": {"dtype": "DT_FLOAT", "tensorShape": {"dim": [{"size": "256"}, {"size": "128"}]}}}, "dtype": {"type": "DT_FLOAT"}}}, {"name": "bert/encoder/layer_17/bottleneck/attention/dense/bias", "op": "Const", "attr": {"value": {"tensor": {"dtype": "DT_FLOAT", "tensorShape": {"dim": [{"size": "128"}]}}}, "dtype": {"type": "DT_FLOAT"}}}, {"name": "bert/encoder/layer_17/bottleneck/attention/dense_1/Reshape_1/shape", "op": "Const", "attr": {"value": {"tensor": {"dtype": "DT_INT32", "tensorShape": {"dim": [{"size": "3"}]}}}, "dtype": {"type": "DT_INT32"}}}, {"name": "bert/encoder/layer_17/bottleneck/attention/FakeLayerNorm/gamma", "op": "Const", "attr": {"value": {"tensor": {"dtype": "DT_FLOAT", "tensorShape": {"dim": [{"size": "128"}]}}}, "dtype": {"type": "DT_FLOAT"}}}, {"name": "bert/encoder/layer_17/bottleneck/attention/FakeLayerNorm/beta", "op": "Const", "attr": {"dtype": {"type": "DT_FLOAT"}, "value": {"tensor": {"dtype": "DT_FLOAT", "tensorShape": {"dim": [{"size": "128"}]}}}}}, {"name": "bert/encoder/layer_17/attention/self/key_1/Reshape/shape", "op": "Const", "attr": {"value": {"tensor": {"dtype": "DT_INT32", "tensorShape": {"dim": [{"size": "2"}]}}}, "dtype": {"type": "DT_INT32"}}}, {"name": "bert/encoder/layer_17/attention/self/key/kernel", "op": "Const", "attr": {"dtype": {"type": "DT_FLOAT"}, "value": {"tensor": {"dtype": "DT_FLOAT", "tensorShape": {"dim": [{"size": "128"}, {"size": "128"}]}}}}}, {"name": "bert/encoder/layer_17/attention/self/key/bias", "op": "Const", "attr": {"value": {"tensor": {"dtype": "DT_FLOAT", "tensorShape": {"dim": [{"size": "128"}]}}}, "dtype": {"type": "DT_FLOAT"}}}, {"name": "bert/encoder/layer_17/attention/self/key_1/Reshape_1/shape", "op": "Const", "attr": {"value": {"tensor": {"dtype": "DT_INT32", "tensorShape": {"dim": [{"size": "4"}]}}}, "dtype": {"type": "DT_INT32"}}}, {"name": "bert/encoder/layer_17/attention/self/transpose_1/perm", "op": "Const", "attr": {"value": {"tensor": {"dtype": "DT_INT32", "tensorShape": {"dim": [{"size": "4"}]}}}, "dtype": {"type": "DT_INT32"}}}, {"name": "bert/encoder/layer_17/attention/self/sub/x", "op": "Const", "attr": {"value": {"tensor": {"dtype": "DT_FLOAT", "tensorShape": {}}}, "dtype": {"type": "DT_FLOAT"}}}, {"name": "bert/encoder/layer_17/attention/self/ExpandDims/dim", "op": "Const", "attr": {"dtype": {"type": "DT_INT32"}, "value": {"tensor": {"dtype": "DT_INT32", "tensorShape": {"dim": [{"size": "1"}]}}}}}, {"name": "bert/encoder/layer_17/attention/self/mul_1/y", "op": "Const", "attr": {"value": {"tensor": {"dtype": "DT_FLOAT", "tensorShape": {}}}, "dtype": {"type": "DT_FLOAT"}}}, {"name": "bert/encoder/layer_17/attention/self/value_1/Reshape/shape", "op": "Const", "attr": {"value": {"tensor": {"dtype": "DT_INT32", "tensorShape": {"dim": [{"size": "2"}]}}}, "dtype": {"type": "DT_INT32"}}}, {"name": "bert/encoder/layer_17/attention/self/value/kernel", "op": "Const", "attr": {"value": {"tensor": {"dtype": "DT_FLOAT", "tensorShape": {"dim": [{"size": "256"}, {"size": "128"}]}}}, "dtype": {"type": "DT_FLOAT"}}}, {"name": "bert/encoder/layer_17/attention/self/value/bias", "op": "Const", "attr": {"value": {"tensor": {"dtype": "DT_FLOAT", "tensorShape": {"dim": [{"size": "128"}]}}}, "dtype": {"type": "DT_FLOAT"}}}, {"name": "bert/encoder/layer_17/attention/self/value_1/Reshape_1/shape", "op": "Const", "attr": {"value": {"tensor": {"dtype": "DT_INT32", "tensorShape": {"dim": [{"size": "4"}]}}}, "dtype": {"type": "DT_INT32"}}}, {"name": "bert/encoder/layer_17/attention/self/transpose_2/perm", "op": "Const", "attr": {"dtype": {"type": "DT_INT32"}, "value": {"tensor": {"dtype": "DT_INT32", "tensorShape": {"dim": [{"size": "4"}]}}}}}, {"name": "bert/encoder/layer_17/attention/self/transpose_3/perm", "op": "Const", "attr": {"value": {"tensor": {"dtype": "DT_INT32", "tensorShape": {"dim": [{"size": "4"}]}}}, "dtype": {"type": "DT_INT32"}}}, {"name": "bert/encoder/layer_17/attention/output/dense_1/Reshape/shape", "op": "Const", "attr": {"value": {"tensor": {"dtype": "DT_INT32", "tensorShape": {"dim": [{"size": "2"}]}}}, "dtype": {"type": "DT_INT32"}}}, {"name": "bert/encoder/layer_17/attention/output/dense/kernel", "op": "Const", "attr": {"value": {"tensor": {"dtype": "DT_FLOAT", "tensorShape": {"dim": [{"size": "128"}, {"size": "128"}]}}}, "dtype": {"type": "DT_FLOAT"}}}, {"name": "bert/encoder/layer_17/attention/output/dense/bias", "op": "Const", "attr": {"dtype": {"type": "DT_FLOAT"}, "value": {"tensor": {"dtype": "DT_FLOAT", "tensorShape": {"dim": [{"size": "128"}]}}}}}, {"name": "bert/encoder/layer_17/attention/output/dense_1/Reshape_1/shape", "op": "Const", "attr": {"value": {"tensor": {"dtype": "DT_INT32", "tensorShape": {"dim": [{"size": "3"}]}}}, "dtype": {"type": "DT_INT32"}}}, {"name": "bert/encoder/layer_17/bottleneck/input/dense_1/Reshape/shape", "op": "Const", "attr": {"value": {"tensor": {"dtype": "DT_INT32", "tensorShape": {"dim": [{"size": "2"}]}}}, "dtype": {"type": "DT_INT32"}}}, {"name": "bert/encoder/layer_17/bottleneck/input/dense/kernel", "op": "Const", "attr": {"value": {"tensor": {"dtype": "DT_FLOAT", "tensorShape": {"dim": [{"size": "256"}, {"size": "128"}]}}}, "dtype": {"type": "DT_FLOAT"}}}, {"name": "bert/encoder/layer_17/bottleneck/input/dense/bias", "op": "Const", "attr": {"value": {"tensor": {"dtype": "DT_FLOAT", "tensorShape": {"dim": [{"size": "128"}]}}}, "dtype": {"type": "DT_FLOAT"}}}, {"name": "bert/encoder/layer_17/bottleneck/input/dense_1/Reshape_1/shape", "op": "Const", "attr": {"value": {"tensor": {"dtype": "DT_INT32", "tensorShape": {"dim": [{"size": "3"}]}}}, "dtype": {"type": "DT_INT32"}}}, {"name": "bert/encoder/layer_17/bottleneck/input/FakeLayerNorm/gamma", "op": "Const", "attr": {"value": {"tensor": {"dtype": "DT_FLOAT", "tensorShape": {"dim": [{"size": "128"}]}}}, "dtype": {"type": "DT_FLOAT"}}}, {"name": "bert/encoder/layer_17/attention/output/FakeLayerNorm/gamma", "op": "Const", "attr": {"value": {"tensor": {"dtype": "DT_FLOAT", "tensorShape": {"dim": [{"size": "128"}]}}}, "dtype": {"type": "DT_FLOAT"}}}, {"name": "bert/encoder/layer_17/attention/output/FakeLayerNorm/beta", "op": "Const", "attr": {"value": {"tensor": {"dtype": "DT_FLOAT", "tensorShape": {"dim": [{"size": "128"}]}}}, "dtype": {"type": "DT_FLOAT"}}}, {"name": "bert/encoder/layer_17/ffn_layer_0/output/FakeLayerNorm/gamma", "op": "Const", "attr": {"dtype": {"type": "DT_FLOAT"}, "value": {"tensor": {"dtype": "DT_FLOAT", "tensorShape": {"dim": [{"size": "128"}]}}}}}, {"name": "bert/encoder/layer_17/ffn_layer_0/output/FakeLayerNorm/beta", "op": "Const", "attr": {"value": {"tensor": {"dtype": "DT_FLOAT", "tensorShape": {"dim": [{"size": "128"}]}}}, "dtype": {"type": "DT_FLOAT"}}}, {"name": "bert/encoder/layer_17/ffn_layer_1/output/FakeLayerNorm/gamma", "op": "Const", "attr": {"value": {"tensor": {"dtype": "DT_FLOAT", "tensorShape": {"dim": [{"size": "128"}]}}}, "dtype": {"type": "DT_FLOAT"}}}, {"name": "bert/encoder/layer_17/ffn_layer_1/output/FakeLayerNorm/beta", "op": "Const", "attr": {"value": {"tensor": {"dtype": "DT_FLOAT", "tensorShape": {"dim": [{"size": "128"}]}}}, "dtype": {"type": "DT_FLOAT"}}}, {"name": "bert/encoder/layer_17/ffn_layer_2/output/FakeLayerNorm/gamma", "op": "Const", "attr": {"value": {"tensor": {"dtype": "DT_FLOAT", "tensorShape": {"dim": [{"size": "128"}]}}}, "dtype": {"type": "DT_FLOAT"}}}, {"name": "bert/encoder/layer_17/ffn_layer_2/output/FakeLayerNorm/beta", "op": "Const", "attr": {"value": {"tensor": {"dtype": "DT_FLOAT", "tensorShape": {"dim": [{"size": "128"}]}}}, "dtype": {"type": "DT_FLOAT"}}}, {"name": "bert/encoder/layer_17/output/FakeLayerNorm/gamma", "op": "Const", "attr": {"value": {"tensor": {"dtype": "DT_FLOAT", "tensorShape": {"dim": [{"size": "128"}]}}}, "dtype": {"type": "DT_FLOAT"}}}, {"name": "bert/encoder/layer_17/output/FakeLayerNorm/beta", "op": "Const", "attr": {"value": {"tensor": {"dtype": "DT_FLOAT", "tensorShape": {"dim": [{"size": "128"}]}}}, "dtype": {"type": "DT_FLOAT"}}}, {"name": "bert/encoder/layer_17/output/bottleneck/dense_1/Reshape/shape", "op": "Const", "attr": {"value": {"tensor": {"dtype": "DT_INT32", "tensorShape": {"dim": [{"size": "2"}]}}}, "dtype": {"type": "DT_INT32"}}}, {"name": "bert/encoder/layer_17/output/bottleneck/dense/kernel", "op": "Const", "attr": {"dtype": {"type": "DT_FLOAT"}, "value": {"tensor": {"dtype": "DT_FLOAT", "tensorShape": {"dim": [{"size": "128"}, {"size": "256"}]}}}}}, {"name": "bert/encoder/layer_17/output/bottleneck/dense/bias", "op": "Const", "attr": {"value": {"tensor": {"dtype": "DT_FLOAT", "tensorShape": {"dim": [{"size": "256"}]}}}, "dtype": {"type": "DT_FLOAT"}}}, {"name": "bert/encoder/layer_17/output/bottleneck/dense_1/Reshape_1/shape", "op": "Const", "attr": {"value": {"tensor": {"dtype": "DT_INT32", "tensorShape": {"dim": [{"size": "3"}]}}}, "dtype": {"type": "DT_INT32"}}}, {"name": "bert/encoder/layer_16/intermediate/dense_1/Reshape/shape", "op": "Const", "attr": {"value": {"tensor": {"dtype": "DT_INT32", "tensorShape": {"dim": [{"size": "2"}]}}}, "dtype": {"type": "DT_INT32"}}}, {"name": "bert/encoder/layer_16/intermediate/dense/kernel", "op": "Const", "attr": {"value": {"tensor": {"dtype": "DT_FLOAT", "tensorShape": {"dim": [{"size": "128"}, {"size": "512"}]}}}, "dtype": {"type": "DT_FLOAT"}}}, {"name": "bert/encoder/layer_16/intermediate/dense/bias", "op": "Const", "attr": {"dtype": {"type": "DT_FLOAT"}, "value": {"tensor": {"dtype": "DT_FLOAT", "tensorShape": {"dim": [{"size": "512"}]}}}}}, {"name": "bert/encoder/layer_16/intermediate/dense_1/Reshape_1/shape", "op": "Const", "attr": {"value": {"tensor": {"dtype": "DT_INT32", "tensorShape": {"dim": [{"size": "3"}]}}}, "dtype": {"type": "DT_INT32"}}}, {"name": "bert/encoder/layer_16/output/dense_1/Reshape/shape", "op": "Const", "attr": {"value": {"tensor": {"dtype": "DT_INT32", "tensorShape": {"dim": [{"size": "2"}]}}}, "dtype": {"type": "DT_INT32"}}}, {"name": "bert/encoder/layer_16/output/dense/kernel", "op": "Const", "attr": {"value": {"tensor": {"dtype": "DT_FLOAT", "tensorShape": {"dim": [{"size": "512"}, {"size": "128"}]}}}, "dtype": {"type": "DT_FLOAT"}}}, {"name": "bert/encoder/layer_16/output/dense/bias", "op": "Const", "attr": {"value": {"tensor": {"dtype": "DT_FLOAT", "tensorShape": {"dim": [{"size": "128"}]}}}, "dtype": {"type": "DT_FLOAT"}}}, {"name": "bert/encoder/layer_16/output/dense_1/Reshape_1/shape", "op": "Const", "attr": {"dtype": {"type": "DT_INT32"}, "value": {"tensor": {"dtype": "DT_INT32", "tensorShape": {"dim": [{"size": "3"}]}}}}}, {"name": "bert/encoder/layer_16/ffn_layer_2/intermediate/dense_1/Reshape/shape", "op": "Const", "attr": {"value": {"tensor": {"dtype": "DT_INT32", "tensorShape": {"dim": [{"size": "2"}]}}}, "dtype": {"type": "DT_INT32"}}}, {"name": "bert/encoder/layer_16/ffn_layer_2/intermediate/dense/kernel", "op": "Const", "attr": {"value": {"tensor": {"dtype": "DT_FLOAT", "tensorShape": {"dim": [{"size": "128"}, {"size": "512"}]}}}, "dtype": {"type": "DT_FLOAT"}}}, {"name": "bert/encoder/layer_16/ffn_layer_2/intermediate/dense/bias", "op": "Const", "attr": {"dtype": {"type": "DT_FLOAT"}, "value": {"tensor": {"dtype": "DT_FLOAT", "tensorShape": {"dim": [{"size": "512"}]}}}}}, {"name": "bert/encoder/layer_16/ffn_layer_2/intermediate/dense_1/Reshape_1/shape", "op": "Const", "attr": {"value": {"tensor": {"dtype": "DT_INT32", "tensorShape": {"dim": [{"size": "3"}]}}}, "dtype": {"type": "DT_INT32"}}}, {"name": "bert/encoder/layer_16/ffn_layer_2/output/dense_1/Reshape/shape", "op": "Const", "attr": {"value": {"tensor": {"dtype": "DT_INT32", "tensorShape": {"dim": [{"size": "2"}]}}}, "dtype": {"type": "DT_INT32"}}}, {"name": "bert/encoder/layer_16/ffn_layer_2/output/dense/kernel", "op": "Const", "attr": {"value": {"tensor": {"dtype": "DT_FLOAT", "tensorShape": {"dim": [{"size": "512"}, {"size": "128"}]}}}, "dtype": {"type": "DT_FLOAT"}}}, {"name": "bert/encoder/layer_16/ffn_layer_2/output/dense/bias", "op": "Const", "attr": {"value": {"tensor": {"dtype": "DT_FLOAT", "tensorShape": {"dim": [{"size": "128"}]}}}, "dtype": {"type": "DT_FLOAT"}}}, {"name": "bert/encoder/layer_16/ffn_layer_2/output/dense_1/Reshape_1/shape", "op": "Const", "attr": {"value": {"tensor": {"dtype": "DT_INT32", "tensorShape": {"dim": [{"size": "3"}]}}}, "dtype": {"type": "DT_INT32"}}}, {"name": "bert/encoder/layer_16/ffn_layer_1/intermediate/dense_1/Reshape/shape", "op": "Const", "attr": {"dtype": {"type": "DT_INT32"}, "value": {"tensor": {"dtype": "DT_INT32", "tensorShape": {"dim": [{"size": "2"}]}}}}}, {"name": "bert/encoder/layer_16/ffn_layer_1/intermediate/dense/kernel", "op": "Const", "attr": {"value": {"tensor": {"dtype": "DT_FLOAT", "tensorShape": {"dim": [{"size": "128"}, {"size": "512"}]}}}, "dtype": {"type": "DT_FLOAT"}}}, {"name": "bert/encoder/layer_16/ffn_layer_1/intermediate/dense/bias", "op": "Const", "attr": {"value": {"tensor": {"dtype": "DT_FLOAT", "tensorShape": {"dim": [{"size": "512"}]}}}, "dtype": {"type": "DT_FLOAT"}}}, {"name": "bert/encoder/layer_16/ffn_layer_1/intermediate/dense_1/Reshape_1/shape", "op": "Const", "attr": {"value": {"tensor": {"dtype": "DT_INT32", "tensorShape": {"dim": [{"size": "3"}]}}}, "dtype": {"type": "DT_INT32"}}}, {"name": "bert/encoder/layer_16/ffn_layer_1/output/dense_1/Reshape/shape", "op": "Const", "attr": {"value": {"tensor": {"dtype": "DT_INT32", "tensorShape": {"dim": [{"size": "2"}]}}}, "dtype": {"type": "DT_INT32"}}}, {"name": "bert/encoder/layer_16/ffn_layer_1/output/dense/kernel", "op": "Const", "attr": {"value": {"tensor": {"dtype": "DT_FLOAT", "tensorShape": {"dim": [{"size": "512"}, {"size": "128"}]}}}, "dtype": {"type": "DT_FLOAT"}}}, {"name": "bert/encoder/layer_16/ffn_layer_1/output/dense/bias", "op": "Const", "attr": {"value": {"tensor": {"dtype": "DT_FLOAT", "tensorShape": {"dim": [{"size": "128"}]}}}, "dtype": {"type": "DT_FLOAT"}}}, {"name": "bert/encoder/layer_16/ffn_layer_1/output/dense_1/Reshape_1/shape", "op": "Const", "attr": {"value": {"tensor": {"dtype": "DT_INT32", "tensorShape": {"dim": [{"size": "3"}]}}}, "dtype": {"type": "DT_INT32"}}}, {"name": "bert/encoder/layer_16/ffn_layer_0/intermediate/dense_1/Reshape/shape", "op": "Const", "attr": {"dtype": {"type": "DT_INT32"}, "value": {"tensor": {"dtype": "DT_INT32", "tensorShape": {"dim": [{"size": "2"}]}}}}}, {"name": "bert/encoder/layer_16/ffn_layer_0/intermediate/dense/kernel", "op": "Const", "attr": {"value": {"tensor": {"dtype": "DT_FLOAT", "tensorShape": {"dim": [{"size": "128"}, {"size": "512"}]}}}, "dtype": {"type": "DT_FLOAT"}}}, {"name": "bert/encoder/layer_16/ffn_layer_0/intermediate/dense/bias", "op": "Const", "attr": {"dtype": {"type": "DT_FLOAT"}, "value": {"tensor": {"dtype": "DT_FLOAT", "tensorShape": {"dim": [{"size": "512"}]}}}}}, {"name": "bert/encoder/layer_16/ffn_layer_0/intermediate/dense_1/Reshape_1/shape", "op": "Const", "attr": {"value": {"tensor": {"dtype": "DT_INT32", "tensorShape": {"dim": [{"size": "3"}]}}}, "dtype": {"type": "DT_INT32"}}}, {"name": "bert/encoder/layer_16/ffn_layer_0/output/dense_1/Reshape/shape", "op": "Const", "attr": {"value": {"tensor": {"dtype": "DT_INT32", "tensorShape": {"dim": [{"size": "2"}]}}}, "dtype": {"type": "DT_INT32"}}}, {"name": "bert/encoder/layer_16/ffn_layer_0/output/dense/kernel", "op": "Const", "attr": {"value": {"tensor": {"dtype": "DT_FLOAT", "tensorShape": {"dim": [{"size": "512"}, {"size": "128"}]}}}, "dtype": {"type": "DT_FLOAT"}}}, {"name": "bert/encoder/layer_16/ffn_layer_0/output/dense/bias", "op": "Const", "attr": {"value": {"tensor": {"dtype": "DT_FLOAT", "tensorShape": {"dim": [{"size": "128"}]}}}, "dtype": {"type": "DT_FLOAT"}}}, {"name": "bert/encoder/layer_16/ffn_layer_0/output/dense_1/Reshape_1/shape", "op": "Const", "attr": {"value": {"tensor": {"dtype": "DT_INT32", "tensorShape": {"dim": [{"size": "3"}]}}}, "dtype": {"type": "DT_INT32"}}}, {"name": "bert/encoder/layer_16/bottleneck/input/FakeLayerNorm/beta", "op": "Const", "attr": {"value": {"tensor": {"dtype": "DT_FLOAT", "tensorShape": {"dim": [{"size": "128"}]}}}, "dtype": {"type": "DT_FLOAT"}}}, {"name": "bert/encoder/layer_16/attention/self/Mul/y", "op": "Const", "attr": {"value": {"tensor": {"dtype": "DT_FLOAT", "tensorShape": {}}}, "dtype": {"type": "DT_FLOAT"}}}, {"name": "bert/encoder/layer_16/attention/self/query_1/Reshape/shape", "op": "Const", "attr": {"value": {"tensor": {"dtype": "DT_INT32", "tensorShape": {"dim": [{"size": "2"}]}}}, "dtype": {"type": "DT_INT32"}}}, {"name": "bert/encoder/layer_16/attention/self/query/kernel", "op": "Const", "attr": {"value": {"tensor": {"dtype": "DT_FLOAT", "tensorShape": {"dim": [{"size": "128"}, {"size": "128"}]}}}, "dtype": {"type": "DT_FLOAT"}}}, {"name": "bert/encoder/layer_16/attention/self/query/bias", "op": "Const", "attr": {"dtype": {"type": "DT_FLOAT"}, "value": {"tensor": {"dtype": "DT_FLOAT", "tensorShape": {"dim": [{"size": "128"}]}}}}}, {"name": "bert/encoder/layer_16/attention/self/query_1/Reshape_1/shape", "op": "Const", "attr": {"value": {"tensor": {"dtype": "DT_INT32", "tensorShape": {"dim": [{"size": "4"}]}}}, "dtype": {"type": "DT_INT32"}}}, {"name": "bert/encoder/layer_16/attention/self/transpose/perm", "op": "Const", "attr": {"value": {"tensor": {"dtype": "DT_INT32", "tensorShape": {"dim": [{"size": "4"}]}}}, "dtype": {"type": "DT_INT32"}}}, {"name": "bert/encoder/layer_16/bottleneck/attention/dense_1/Reshape/shape", "op": "Const", "attr": {"value": {"tensor": {"dtype": "DT_INT32", "tensorShape": {"dim": [{"size": "2"}]}}}, "dtype": {"type": "DT_INT32"}}}, {"name": "bert/encoder/layer_16/bottleneck/attention/dense/kernel", "op": "Const", "attr": {"value": {"tensor": {"dtype": "DT_FLOAT", "tensorShape": {"dim": [{"size": "256"}, {"size": "128"}]}}}, "dtype": {"type": "DT_FLOAT"}}}, {"name": "bert/encoder/layer_16/bottleneck/attention/dense/bias", "op": "Const", "attr": {"value": {"tensor": {"dtype": "DT_FLOAT", "tensorShape": {"dim": [{"size": "128"}]}}}, "dtype": {"type": "DT_FLOAT"}}}, {"name": "bert/encoder/layer_16/bottleneck/attention/dense_1/Reshape_1/shape", "op": "Const", "attr": {"value": {"tensor": {"dtype": "DT_INT32", "tensorShape": {"dim": [{"size": "3"}]}}}, "dtype": {"type": "DT_INT32"}}}, {"name": "bert/encoder/layer_16/bottleneck/attention/FakeLayerNorm/gamma", "op": "Const", "attr": {"value": {"tensor": {"dtype": "DT_FLOAT", "tensorShape": {"dim": [{"size": "128"}]}}}, "dtype": {"type": "DT_FLOAT"}}}, {"name": "bert/encoder/layer_16/bottleneck/attention/FakeLayerNorm/beta", "op": "Const", "attr": {"value": {"tensor": {"dtype": "DT_FLOAT", "tensorShape": {"dim": [{"size": "128"}]}}}, "dtype": {"type": "DT_FLOAT"}}}, {"name": "bert/encoder/layer_16/attention/self/key_1/Reshape/shape", "op": "Const", "attr": {"value": {"tensor": {"dtype": "DT_INT32", "tensorShape": {"dim": [{"size": "2"}]}}}, "dtype": {"type": "DT_INT32"}}}, {"name": "bert/encoder/layer_16/attention/self/key/kernel", "op": "Const", "attr": {"value": {"tensor": {"dtype": "DT_FLOAT", "tensorShape": {"dim": [{"size": "128"}, {"size": "128"}]}}}, "dtype": {"type": "DT_FLOAT"}}}, {"name": "bert/encoder/layer_16/attention/self/key/bias", "op": "Const", "attr": {"value": {"tensor": {"dtype": "DT_FLOAT", "tensorShape": {"dim": [{"size": "128"}]}}}, "dtype": {"type": "DT_FLOAT"}}}, {"name": "bert/encoder/layer_16/attention/self/key_1/Reshape_1/shape", "op": "Const", "attr": {"value": {"tensor": {"dtype": "DT_INT32", "tensorShape": {"dim": [{"size": "4"}]}}}, "dtype": {"type": "DT_INT32"}}}, {"name": "bert/encoder/layer_16/attention/self/transpose_1/perm", "op": "Const", "attr": {"value": {"tensor": {"dtype": "DT_INT32", "tensorShape": {"dim": [{"size": "4"}]}}}, "dtype": {"type": "DT_INT32"}}}, {"name": "bert/encoder/layer_16/attention/self/sub/x", "op": "Const", "attr": {"value": {"tensor": {"dtype": "DT_FLOAT", "tensorShape": {}}}, "dtype": {"type": "DT_FLOAT"}}}, {"name": "bert/encoder/layer_16/attention/self/ExpandDims/dim", "op": "Const", "attr": {"value": {"tensor": {"dtype": "DT_INT32", "tensorShape": {"dim": [{"size": "1"}]}}}, "dtype": {"type": "DT_INT32"}}}, {"name": "bert/encoder/layer_16/attention/self/mul_1/y", "op": "Const", "attr": {"value": {"tensor": {"dtype": "DT_FLOAT", "tensorShape": {}}}, "dtype": {"type": "DT_FLOAT"}}}, {"name": "bert/encoder/layer_16/attention/self/value_1/Reshape/shape", "op": "Const", "attr": {"value": {"tensor": {"dtype": "DT_INT32", "tensorShape": {"dim": [{"size": "2"}]}}}, "dtype": {"type": "DT_INT32"}}}, {"name": "bert/encoder/layer_16/attention/self/value/kernel", "op": "Const", "attr": {"value": {"tensor": {"dtype": "DT_FLOAT", "tensorShape": {"dim": [{"size": "256"}, {"size": "128"}]}}}, "dtype": {"type": "DT_FLOAT"}}}, {"name": "bert/encoder/layer_16/attention/self/value/bias", "op": "Const", "attr": {"value": {"tensor": {"dtype": "DT_FLOAT", "tensorShape": {"dim": [{"size": "128"}]}}}, "dtype": {"type": "DT_FLOAT"}}}, {"name": "bert/encoder/layer_16/attention/self/value_1/Reshape_1/shape", "op": "Const", "attr": {"dtype": {"type": "DT_INT32"}, "value": {"tensor": {"dtype": "DT_INT32", "tensorShape": {"dim": [{"size": "4"}]}}}}}, {"name": "bert/encoder/layer_16/attention/self/transpose_2/perm", "op": "Const", "attr": {"value": {"tensor": {"dtype": "DT_INT32", "tensorShape": {"dim": [{"size": "4"}]}}}, "dtype": {"type": "DT_INT32"}}}, {"name": "bert/encoder/layer_16/attention/self/transpose_3/perm", "op": "Const", "attr": {"value": {"tensor": {"dtype": "DT_INT32", "tensorShape": {"dim": [{"size": "4"}]}}}, "dtype": {"type": "DT_INT32"}}}, {"name": "bert/encoder/layer_16/attention/output/dense_1/Reshape/shape", "op": "Const", "attr": {"value": {"tensor": {"dtype": "DT_INT32", "tensorShape": {"dim": [{"size": "2"}]}}}, "dtype": {"type": "DT_INT32"}}}, {"name": "bert/encoder/layer_16/attention/output/dense/kernel", "op": "Const", "attr": {"value": {"tensor": {"dtype": "DT_FLOAT", "tensorShape": {"dim": [{"size": "128"}, {"size": "128"}]}}}, "dtype": {"type": "DT_FLOAT"}}}, {"name": "bert/encoder/layer_16/attention/output/dense/bias", "op": "Const", "attr": {"dtype": {"type": "DT_FLOAT"}, "value": {"tensor": {"dtype": "DT_FLOAT", "tensorShape": {"dim": [{"size": "128"}]}}}}}, {"name": "bert/encoder/layer_16/attention/output/dense_1/Reshape_1/shape", "op": "Const", "attr": {"value": {"tensor": {"dtype": "DT_INT32", "tensorShape": {"dim": [{"size": "3"}]}}}, "dtype": {"type": "DT_INT32"}}}, {"name": "bert/encoder/layer_16/bottleneck/input/dense_1/Reshape/shape", "op": "Const", "attr": {"value": {"tensor": {"dtype": "DT_INT32", "tensorShape": {"dim": [{"size": "2"}]}}}, "dtype": {"type": "DT_INT32"}}}, {"name": "bert/encoder/layer_16/bottleneck/input/dense/kernel", "op": "Const", "attr": {"value": {"tensor": {"dtype": "DT_FLOAT", "tensorShape": {"dim": [{"size": "256"}, {"size": "128"}]}}}, "dtype": {"type": "DT_FLOAT"}}}, {"name": "bert/encoder/layer_16/bottleneck/input/dense/bias", "op": "Const", "attr": {"value": {"tensor": {"dtype": "DT_FLOAT", "tensorShape": {"dim": [{"size": "128"}]}}}, "dtype": {"type": "DT_FLOAT"}}}, {"name": "bert/encoder/layer_16/bottleneck/input/dense_1/Reshape_1/shape", "op": "Const", "attr": {"value": {"tensor": {"dtype": "DT_INT32", "tensorShape": {"dim": [{"size": "3"}]}}}, "dtype": {"type": "DT_INT32"}}}, {"name": "bert/encoder/layer_16/bottleneck/input/FakeLayerNorm/gamma", "op": "Const", "attr": {"value": {"tensor": {"dtype": "DT_FLOAT", "tensorShape": {"dim": [{"size": "128"}]}}}, "dtype": {"type": "DT_FLOAT"}}}, {"name": "bert/encoder/layer_16/attention/output/FakeLayerNorm/gamma", "op": "Const", "attr": {"value": {"tensor": {"dtype": "DT_FLOAT", "tensorShape": {"dim": [{"size": "128"}]}}}, "dtype": {"type": "DT_FLOAT"}}}, {"name": "bert/encoder/layer_16/attention/output/FakeLayerNorm/beta", "op": "Const", "attr": {"value": {"tensor": {"dtype": "DT_FLOAT", "tensorShape": {"dim": [{"size": "128"}]}}}, "dtype": {"type": "DT_FLOAT"}}}, {"name": "bert/encoder/layer_16/ffn_layer_0/output/FakeLayerNorm/gamma", "op": "Const", "attr": {"value": {"tensor": {"dtype": "DT_FLOAT", "tensorShape": {"dim": [{"size": "128"}]}}}, "dtype": {"type": "DT_FLOAT"}}}, {"name": "bert/encoder/layer_16/ffn_layer_0/output/FakeLayerNorm/beta", "op": "Const", "attr": {"value": {"tensor": {"dtype": "DT_FLOAT", "tensorShape": {"dim": [{"size": "128"}]}}}, "dtype": {"type": "DT_FLOAT"}}}, {"name": "bert/encoder/layer_16/ffn_layer_1/output/FakeLayerNorm/gamma", "op": "Const", "attr": {"value": {"tensor": {"dtype": "DT_FLOAT", "tensorShape": {"dim": [{"size": "128"}]}}}, "dtype": {"type": "DT_FLOAT"}}}, {"name": "bert/encoder/layer_16/ffn_layer_1/output/FakeLayerNorm/beta", "op": "Const", "attr": {"value": {"tensor": {"dtype": "DT_FLOAT", "tensorShape": {"dim": [{"size": "128"}]}}}, "dtype": {"type": "DT_FLOAT"}}}, {"name": "bert/encoder/layer_16/ffn_layer_2/output/FakeLayerNorm/gamma", "op": "Const", "attr": {"value": {"tensor": {"dtype": "DT_FLOAT", "tensorShape": {"dim": [{"size": "128"}]}}}, "dtype": {"type": "DT_FLOAT"}}}, {"name": "bert/encoder/layer_16/ffn_layer_2/output/FakeLayerNorm/beta", "op": "Const", "attr": {"value": {"tensor": {"dtype": "DT_FLOAT", "tensorShape": {"dim": [{"size": "128"}]}}}, "dtype": {"type": "DT_FLOAT"}}}, {"name": "bert/encoder/layer_16/output/FakeLayerNorm/gamma", "op": "Const", "attr": {"value": {"tensor": {"dtype": "DT_FLOAT", "tensorShape": {"dim": [{"size": "128"}]}}}, "dtype": {"type": "DT_FLOAT"}}}, {"name": "bert/encoder/layer_16/output/FakeLayerNorm/beta", "op": "Const", "attr": {"dtype": {"type": "DT_FLOAT"}, "value": {"tensor": {"dtype": "DT_FLOAT", "tensorShape": {"dim": [{"size": "128"}]}}}}}, {"name": "bert/encoder/layer_16/output/bottleneck/dense_1/Reshape/shape", "op": "Const", "attr": {"value": {"tensor": {"dtype": "DT_INT32", "tensorShape": {"dim": [{"size": "2"}]}}}, "dtype": {"type": "DT_INT32"}}}, {"name": "bert/encoder/layer_16/output/bottleneck/dense/kernel", "op": "Const", "attr": {"value": {"tensor": {"dtype": "DT_FLOAT", "tensorShape": {"dim": [{"size": "128"}, {"size": "256"}]}}}, "dtype": {"type": "DT_FLOAT"}}}, {"name": "bert/encoder/layer_16/output/bottleneck/dense/bias", "op": "Const", "attr": {"value": {"tensor": {"dtype": "DT_FLOAT", "tensorShape": {"dim": [{"size": "256"}]}}}, "dtype": {"type": "DT_FLOAT"}}}, {"name": "bert/encoder/layer_16/output/bottleneck/dense_1/Reshape_1/shape", "op": "Const", "attr": {"value": {"tensor": {"dtype": "DT_INT32", "tensorShape": {"dim": [{"size": "3"}]}}}, "dtype": {"type": "DT_INT32"}}}, {"name": "bert/encoder/layer_15/intermediate/dense_1/Reshape/shape", "op": "Const", "attr": {"value": {"tensor": {"dtype": "DT_INT32", "tensorShape": {"dim": [{"size": "2"}]}}}, "dtype": {"type": "DT_INT32"}}}, {"name": "bert/encoder/layer_15/intermediate/dense/kernel", "op": "Const", "attr": {"value": {"tensor": {"dtype": "DT_FLOAT", "tensorShape": {"dim": [{"size": "128"}, {"size": "512"}]}}}, "dtype": {"type": "DT_FLOAT"}}}, {"name": "bert/encoder/layer_15/intermediate/dense/bias", "op": "Const", "attr": {"value": {"tensor": {"dtype": "DT_FLOAT", "tensorShape": {"dim": [{"size": "512"}]}}}, "dtype": {"type": "DT_FLOAT"}}}, {"name": "bert/encoder/layer_15/intermediate/dense_1/Reshape_1/shape", "op": "Const", "attr": {"value": {"tensor": {"dtype": "DT_INT32", "tensorShape": {"dim": [{"size": "3"}]}}}, "dtype": {"type": "DT_INT32"}}}, {"name": "bert/encoder/layer_15/output/dense_1/Reshape/shape", "op": "Const", "attr": {"value": {"tensor": {"dtype": "DT_INT32", "tensorShape": {"dim": [{"size": "2"}]}}}, "dtype": {"type": "DT_INT32"}}}, {"name": "bert/encoder/layer_15/output/dense/kernel", "op": "Const", "attr": {"value": {"tensor": {"dtype": "DT_FLOAT", "tensorShape": {"dim": [{"size": "512"}, {"size": "128"}]}}}, "dtype": {"type": "DT_FLOAT"}}}, {"name": "bert/encoder/layer_15/output/dense/bias", "op": "Const", "attr": {"value": {"tensor": {"dtype": "DT_FLOAT", "tensorShape": {"dim": [{"size": "128"}]}}}, "dtype": {"type": "DT_FLOAT"}}}, {"name": "bert/encoder/layer_15/output/dense_1/Reshape_1/shape", "op": "Const", "attr": {"value": {"tensor": {"dtype": "DT_INT32", "tensorShape": {"dim": [{"size": "3"}]}}}, "dtype": {"type": "DT_INT32"}}}, {"name": "bert/encoder/layer_15/ffn_layer_2/intermediate/dense_1/Reshape/shape", "op": "Const", "attr": {"value": {"tensor": {"dtype": "DT_INT32", "tensorShape": {"dim": [{"size": "2"}]}}}, "dtype": {"type": "DT_INT32"}}}, {"name": "bert/encoder/layer_15/ffn_layer_2/intermediate/dense/kernel", "op": "Const", "attr": {"dtype": {"type": "DT_FLOAT"}, "value": {"tensor": {"dtype": "DT_FLOAT", "tensorShape": {"dim": [{"size": "128"}, {"size": "512"}]}}}}}, {"name": "bert/encoder/layer_15/ffn_layer_2/intermediate/dense/bias", "op": "Const", "attr": {"value": {"tensor": {"dtype": "DT_FLOAT", "tensorShape": {"dim": [{"size": "512"}]}}}, "dtype": {"type": "DT_FLOAT"}}}, {"name": "bert/encoder/layer_15/ffn_layer_2/intermediate/dense_1/Reshape_1/shape", "op": "Const", "attr": {"value": {"tensor": {"dtype": "DT_INT32", "tensorShape": {"dim": [{"size": "3"}]}}}, "dtype": {"type": "DT_INT32"}}}, {"name": "bert/encoder/layer_15/ffn_layer_2/output/dense_1/Reshape/shape", "op": "Const", "attr": {"value": {"tensor": {"dtype": "DT_INT32", "tensorShape": {"dim": [{"size": "2"}]}}}, "dtype": {"type": "DT_INT32"}}}, {"name": "bert/encoder/layer_15/ffn_layer_2/output/dense/kernel", "op": "Const", "attr": {"value": {"tensor": {"dtype": "DT_FLOAT", "tensorShape": {"dim": [{"size": "512"}, {"size": "128"}]}}}, "dtype": {"type": "DT_FLOAT"}}}, {"name": "bert/encoder/layer_15/ffn_layer_2/output/dense/bias", "op": "Const", "attr": {"value": {"tensor": {"dtype": "DT_FLOAT", "tensorShape": {"dim": [{"size": "128"}]}}}, "dtype": {"type": "DT_FLOAT"}}}, {"name": "bert/encoder/layer_15/ffn_layer_2/output/dense_1/Reshape_1/shape", "op": "Const", "attr": {"value": {"tensor": {"dtype": "DT_INT32", "tensorShape": {"dim": [{"size": "3"}]}}}, "dtype": {"type": "DT_INT32"}}}, {"name": "bert/encoder/layer_15/ffn_layer_1/intermediate/dense_1/Reshape/shape", "op": "Const", "attr": {"value": {"tensor": {"dtype": "DT_INT32", "tensorShape": {"dim": [{"size": "2"}]}}}, "dtype": {"type": "DT_INT32"}}}, {"name": "bert/encoder/layer_15/ffn_layer_1/intermediate/dense/kernel", "op": "Const", "attr": {"value": {"tensor": {"dtype": "DT_FLOAT", "tensorShape": {"dim": [{"size": "128"}, {"size": "512"}]}}}, "dtype": {"type": "DT_FLOAT"}}}, {"name": "bert/encoder/layer_15/ffn_layer_1/intermediate/dense/bias", "op": "Const", "attr": {"value": {"tensor": {"dtype": "DT_FLOAT", "tensorShape": {"dim": [{"size": "512"}]}}}, "dtype": {"type": "DT_FLOAT"}}}, {"name": "bert/encoder/layer_15/ffn_layer_1/intermediate/dense_1/Reshape_1/shape", "op": "Const", "attr": {"value": {"tensor": {"dtype": "DT_INT32", "tensorShape": {"dim": [{"size": "3"}]}}}, "dtype": {"type": "DT_INT32"}}}, {"name": "bert/encoder/layer_15/ffn_layer_1/output/dense_1/Reshape/shape", "op": "Const", "attr": {"value": {"tensor": {"dtype": "DT_INT32", "tensorShape": {"dim": [{"size": "2"}]}}}, "dtype": {"type": "DT_INT32"}}}, {"name": "bert/encoder/layer_15/ffn_layer_1/output/dense/kernel", "op": "Const", "attr": {"value": {"tensor": {"dtype": "DT_FLOAT", "tensorShape": {"dim": [{"size": "512"}, {"size": "128"}]}}}, "dtype": {"type": "DT_FLOAT"}}}, {"name": "bert/encoder/layer_15/ffn_layer_1/output/dense/bias", "op": "Const", "attr": {"value": {"tensor": {"dtype": "DT_FLOAT", "tensorShape": {"dim": [{"size": "128"}]}}}, "dtype": {"type": "DT_FLOAT"}}}, {"name": "bert/encoder/layer_15/ffn_layer_1/output/dense_1/Reshape_1/shape", "op": "Const", "attr": {"value": {"tensor": {"dtype": "DT_INT32", "tensorShape": {"dim": [{"size": "3"}]}}}, "dtype": {"type": "DT_INT32"}}}, {"name": "bert/encoder/layer_15/ffn_layer_0/intermediate/dense_1/Reshape/shape", "op": "Const", "attr": {"value": {"tensor": {"dtype": "DT_INT32", "tensorShape": {"dim": [{"size": "2"}]}}}, "dtype": {"type": "DT_INT32"}}}, {"name": "bert/encoder/layer_15/ffn_layer_0/intermediate/dense/kernel", "op": "Const", "attr": {"value": {"tensor": {"dtype": "DT_FLOAT", "tensorShape": {"dim": [{"size": "128"}, {"size": "512"}]}}}, "dtype": {"type": "DT_FLOAT"}}}, {"name": "bert/encoder/layer_15/ffn_layer_0/intermediate/dense/bias", "op": "Const", "attr": {"value": {"tensor": {"dtype": "DT_FLOAT", "tensorShape": {"dim": [{"size": "512"}]}}}, "dtype": {"type": "DT_FLOAT"}}}, {"name": "bert/encoder/layer_15/ffn_layer_0/intermediate/dense_1/Reshape_1/shape", "op": "Const", "attr": {"value": {"tensor": {"dtype": "DT_INT32", "tensorShape": {"dim": [{"size": "3"}]}}}, "dtype": {"type": "DT_INT32"}}}, {"name": "bert/encoder/layer_15/ffn_layer_0/output/dense_1/Reshape/shape", "op": "Const", "attr": {"value": {"tensor": {"dtype": "DT_INT32", "tensorShape": {"dim": [{"size": "2"}]}}}, "dtype": {"type": "DT_INT32"}}}, {"name": "bert/encoder/layer_15/ffn_layer_0/output/dense/kernel", "op": "Const", "attr": {"value": {"tensor": {"dtype": "DT_FLOAT", "tensorShape": {"dim": [{"size": "512"}, {"size": "128"}]}}}, "dtype": {"type": "DT_FLOAT"}}}, {"name": "bert/encoder/layer_15/ffn_layer_0/output/dense/bias", "op": "Const", "attr": {"value": {"tensor": {"dtype": "DT_FLOAT", "tensorShape": {"dim": [{"size": "128"}]}}}, "dtype": {"type": "DT_FLOAT"}}}, {"name": "bert/encoder/layer_15/ffn_layer_0/output/dense_1/Reshape_1/shape", "op": "Const", "attr": {"value": {"tensor": {"dtype": "DT_INT32", "tensorShape": {"dim": [{"size": "3"}]}}}, "dtype": {"type": "DT_INT32"}}}, {"name": "bert/encoder/layer_15/bottleneck/input/FakeLayerNorm/beta", "op": "Const", "attr": {"value": {"tensor": {"dtype": "DT_FLOAT", "tensorShape": {"dim": [{"size": "128"}]}}}, "dtype": {"type": "DT_FLOAT"}}}, {"name": "bert/encoder/layer_15/attention/self/Mul/y", "op": "Const", "attr": {"value": {"tensor": {"dtype": "DT_FLOAT", "tensorShape": {}}}, "dtype": {"type": "DT_FLOAT"}}}, {"name": "bert/encoder/layer_15/attention/self/query_1/Reshape/shape", "op": "Const", "attr": {"value": {"tensor": {"dtype": "DT_INT32", "tensorShape": {"dim": [{"size": "2"}]}}}, "dtype": {"type": "DT_INT32"}}}, {"name": "bert/encoder/layer_15/attention/self/query/kernel", "op": "Const", "attr": {"value": {"tensor": {"dtype": "DT_FLOAT", "tensorShape": {"dim": [{"size": "128"}, {"size": "128"}]}}}, "dtype": {"type": "DT_FLOAT"}}}, {"name": "bert/encoder/layer_15/attention/self/query/bias", "op": "Const", "attr": {"dtype": {"type": "DT_FLOAT"}, "value": {"tensor": {"dtype": "DT_FLOAT", "tensorShape": {"dim": [{"size": "128"}]}}}}}, {"name": "bert/encoder/layer_15/attention/self/query_1/Reshape_1/shape", "op": "Const", "attr": {"value": {"tensor": {"dtype": "DT_INT32", "tensorShape": {"dim": [{"size": "4"}]}}}, "dtype": {"type": "DT_INT32"}}}, {"name": "bert/encoder/layer_15/attention/self/transpose/perm", "op": "Const", "attr": {"value": {"tensor": {"dtype": "DT_INT32", "tensorShape": {"dim": [{"size": "4"}]}}}, "dtype": {"type": "DT_INT32"}}}, {"name": "bert/encoder/layer_15/bottleneck/attention/dense_1/Reshape/shape", "op": "Const", "attr": {"value": {"tensor": {"dtype": "DT_INT32", "tensorShape": {"dim": [{"size": "2"}]}}}, "dtype": {"type": "DT_INT32"}}}, {"name": "bert/encoder/layer_15/bottleneck/attention/dense/kernel", "op": "Const", "attr": {"value": {"tensor": {"dtype": "DT_FLOAT", "tensorShape": {"dim": [{"size": "256"}, {"size": "128"}]}}}, "dtype":…
"name": "bert/encoder/layer_4/output/dense_1/Reshape/shape", "shape": [2], "dtype": "int32"}, {"name": "bert/encoder/layer_4/output/dense/kernel", "shape": [512, 128], "dtype": "float32"}, {"name": "bert/encoder/layer_4/output/dense/bias", "shape": [128], "dtype": "float32"}, {"name": "bert/encoder/layer_4/output/dense_1/Reshape_1/shape", "shape": [3], "dtype": "int32"}, {"name": "bert/encoder/layer_4/ffn_layer_2/intermediate/dense_1/Reshape/shape", "shape": [2], "dtype": "int32"}, {"name": "bert/encoder/layer_4/ffn_layer_2/intermediate/dense/kernel", "shape": [128, 512], "dtype": "float32"}, {"name": "bert/encoder/layer_4/ffn_layer_2/intermediate/dense/bias", "shape": [512], "dtype": "float32"}, {"name": "bert/encoder/layer_4/ffn_layer_2/intermediate/dense_1/Reshape_1/shape", "shape": [3], "dtype": "int32"}, {"name": "bert/encoder/layer_4/ffn_layer_2/output/dense_1/Reshape/shape", "shape": [2], "dtype": "int32"}, {"name": "bert/encoder/layer_4/ffn_layer_2/output/dense/kernel", "shape": [512, 128], "dtype": "float32"}, {"name": "bert/encoder/layer_4/ffn_layer_2/output/dense/bias", "shape": [128], "dtype": "float32"}, {"name": "bert/encoder/layer_4/ffn_layer_2/output/dense_1/Reshape_1/shape", "shape": [3], "dtype": "int32"}, {"name": "bert/encoder/layer_4/ffn_layer_1/intermediate/dense_1/Reshape/shape", "shape": [2], "dtype": "int32"}, {"name": "bert/encoder/layer_4/ffn_layer_1/intermediate/dense/kernel", "shape": [128, 512], "dtype": "float32"}, {"name": "bert/encoder/layer_4/ffn_layer_1/intermediate/dense/bias", "shape": [512], "dtype": "float32"}, {"name": "bert/encoder/layer_4/ffn_layer_1/intermediate/dense_1/Reshape_1/shape", "shape": [3], "dtype": "int32"}, {"name": "bert/encoder/layer_4/ffn_layer_1/output/dense_1/Reshape/shape", "shape": [2], "dtype": "int32"}, {"name": "bert/encoder/layer_4/ffn_layer_1/output/dense/kernel", "shape": [512, 128], "dtype": "float32"}, {"name": "bert/encoder/layer_4/ffn_layer_1/output/dense/bias", "shape": [128], "dtype": "float32"}, {"name": "bert/encoder/layer_4/ffn_layer_1/output/dense_1/Reshape_1/shape", "shape": [3], "dtype": "int32"}, {"name": "bert/encoder/layer_4/ffn_layer_0/intermediate/dense_1/Reshape/shape", "shape": [2], "dtype": "int32"}, {"name": "bert/encoder/layer_4/ffn_layer_0/intermediate/dense/kernel", "shape": [128, 512], "dtype": "float32"}, {"name": "bert/encoder/layer_4/ffn_layer_0/intermediate/dense/bias", "shape": [512], "dtype": "float32"}, {"name": "bert/encoder/layer_4/ffn_layer_0/intermediate/dense_1/Reshape_1/shape", "shape": [3], "dtype": "int32"}, {"name": "bert/encoder/layer_4/ffn_layer_0/output/dense_1/Reshape/shape", "shape": [2], "dtype": "int32"}, {"name": "bert/encoder/layer_4/ffn_layer_0/output/dense/kernel", "shape": [512, 128], "dtype": "float32"}, {"name": "bert/encoder/layer_4/ffn_layer_0/output/dense/bias", "shape": [128], "dtype": "float32"}, {"name": "bert/encoder/layer_4/ffn_layer_0/output/dense_1/Reshape_1/shape", "shape": [3], "dtype": "int32"}, {"name": "bert/encoder/layer_4/bottleneck/input/FakeLayerNorm/beta", "shape": [128], "dtype": "float32"}, {"name": "bert/encoder/layer_4/attention/self/Mul/y", "shape": [], "dtype": "float32"}, {"name": "bert/encoder/layer_4/attention/self/query_1/Reshape/shape", "shape": [2], "dtype": "int32"}, {"name": "bert/encoder/layer_4/attention/self/query/kernel", "shape": [128, 128], "dtype": "float32"}, {"name": "bert/encoder/layer_4/attention/self/query/bias", "shape": [128], "dtype": "float32"}, {"name": "bert/encoder/layer_4/attention/self/query_1/Reshape_1/shape", "shape": [4], "dtype": "int32"}, {"name": "bert/encoder/layer_4/attention/self/transpose/perm", "shape": [4], "dtype": "int32"}, {"name": "bert/encoder/layer_4/bottleneck/attention/dense_1/Reshape/shape", "shape": [2], "dtype": "int32"}, {"name": "bert/encoder/layer_4/bottleneck/attention/dense/kernel", "shape": [256, 128], "dtype": "float32"}, {"name": "bert/encoder/layer_4/bottleneck/attention/dense/bias", "shape": [128], "dtype": "float32"}, {"name": "bert/encoder/layer_4/bottleneck/attention/dense_1/Reshape_1/shape", "shape": [3], "dtype": "int32"}, {"name": "bert/encoder/layer_4/bottleneck/attention/FakeLayerNorm/gamma", "shape": [128], "dtype": "float32"}, {"name": "bert/encoder/layer_4/bottleneck/attention/FakeLayerNorm/beta", "shape": [128], "dtype": "float32"}, {"name": "bert/encoder/layer_4/attention/self/key_1/Reshape/shape", "shape": [2], "dtype": "int32"}, {"name": "bert/encoder/layer_4/attention/self/key/kernel", "shape": [128, 128], "dtype": "float32"}, {"name": "bert/encoder/layer_4/attention/self/key/bias", "shape": [128], "dtype": "float32"}, {"name": "bert/encoder/layer_4/attention/self/key_1/Reshape_1/shape", "shape": [4], "dtype": "int32"}, {"name": "bert/encoder/layer_4/attention/self/transpose_1/perm", "shape": [4], "dtype": "int32"}, {"name": "bert/encoder/layer_4/attention/self/sub/x", "shape": [], "dtype": "float32"}, {"name": "bert/encoder/layer_4/attention/self/ExpandDims/dim", "shape": [1], "dtype": "int32"}, {"name": "bert/encoder/layer_4/attention/self/mul_1/y", "shape": [], "dtype": "float32"}, {"name": "bert/encoder/layer_4/attention/self/value_1/Reshape/shape", "shape": [2], "dtype": "int32"}, {"name": "bert/encoder/layer_4/attention/self/value/kernel", "shape": [256, 128], "dtype": "float32"}, {"name": "bert/encoder/layer_4/attention/self/value/bias", "shape": [128], "dtype": "float32"}, {"name": "bert/encoder/layer_4/attention/self/value_1/Reshape_1/shape", "shape": [4], "dtype": "int32"}, {"name": "bert/encoder/layer_4/attention/self/transpose_2/perm", "shape": [4], "dtype": "int32"}, {"name": "bert/encoder/layer_4/attention/self/transpose_3/perm", "shape": [4], "dtype": "int32"}, {"name": "bert/encoder/layer_4/attention/output/dense_1/Reshape/shape", "shape": [2], "dtype": "int32"}, {"name": "bert/encoder/layer_4/attention/output/dense/kernel", "shape": [128, 128], "dtype": "float32"}, {"name": "bert/encoder/layer_4/attention/output/dense/bias", "shape": [128], "dtype": "float32"}, {"name": "bert/encoder/layer_4/attention/output/dense_1/Reshape_1/shape", "shape": [3], "dtype": "int32"}, {"name": "bert/encoder/layer_4/bottleneck/input/dense_1/Reshape/shape", "shape": [2], "dtype": "int32"}, {"name": "bert/encoder/layer_4/bottleneck/input/dense/kernel", "shape": [256, 128], "dtype": "float32"}, {"name": "bert/encoder/layer_4/bottleneck/input/dense/bias", "shape": [128], "dtype": "float32"}, {"name": "bert/encoder/layer_4/bottleneck/input/dense_1/Reshape_1/shape", "shape": [3], "dtype": "int32"}, {"name": "bert/encoder/layer_4/bottleneck/input/FakeLayerNorm/gamma", "shape": [128], "dtype": "float32"}, {"name": "bert/encoder/layer_4/attention/output/FakeLayerNorm/gamma", "shape": [128], "dtype": "float32"}, {"name": "bert/encoder/layer_4/attention/output/FakeLayerNorm/beta", "shape": [128], "dtype": "float32"}, {"name": "bert/encoder/layer_4/ffn_layer_0/output/FakeLayerNorm/gamma", "shape": [128], "dtype": "float32"}, {"name": "bert/encoder/layer_4/ffn_layer_0/output/FakeLayerNorm/beta", "shape": [128], "dtype": "float32"}, {"name": "bert/encoder/layer_4/ffn_layer_1/output/FakeLayerNorm/gamma", "shape": [128], "dtype": "float32"}, {"name": "bert/encoder/layer_4/ffn_layer_1/output/FakeLayerNorm/beta", "shape": [128], "dtype": "float32"}, {"name": "bert/encoder/layer_4/ffn_layer_2/output/FakeLayerNorm/gamma", "shape": [128], "dtype": "float32"}, {"name": "bert/encoder/layer_4/ffn_layer_2/output/FakeLayerNorm/beta", "shape": [128], "dtype": "float32"}, {"name": "bert/encoder/layer_4/output/FakeLayerNorm/gamma", "shape": [128], "dtype": "float32"}, {"name": "bert/encoder/layer_4/output/FakeLayerNorm/beta", "shape": [128], "dtype": "float32"}, {"name": "bert/encoder/layer_4/output/bottleneck/dense_1/Reshape/shape", "shape": [2], "dtype": "int32"}, {"name": "bert/encoder/layer_4/output/bottleneck/dense/kernel", "shape": [128, 256], "dtype": "float32"}, {"name": "bert/encoder/layer_4/output/bottleneck/dense/bias", "shape": [256], "dtype": "float32"}, {"name": "bert/encoder/layer_4/output/bottleneck/dense_1/Reshape_1/shape", "shape": [3], "dtype": "int32"}, {"name": "bert/encoder/layer_3/intermediate/dense_1/Reshape/shape", "shape": [2], "dtype": "int32"}, {"name": "bert/encoder/layer_3/intermediate/dense/kernel", "shape": [128, 512], "dtype": "float32"}, {"name": "bert/encoder/layer_3/intermediate/dense/bias", "shape": [512], "dtype": "float32"}, {"name": "bert/encoder/layer_3/intermediate/dense_1/Reshape_1/shape", "shape": [3], "dtype": "int32"}, {"name": "bert/encoder/layer_3/output/dense_1/Reshape/shape", "shape": [2], "dtype": "int32"}, {"name": "bert/encoder/layer_3/output/dense/kernel", "shape": [512, 128], "dtype": "float32"}, {"name": "bert/encoder/layer_3/output/dense/bias", "shape": [128], "dtype": "float32"}, {"name": "bert/encoder/layer_3/output/dense_1/Reshape_1/shape", "shape": [3], "dtype": "int32"}, {"name": "bert/encoder/layer_3/ffn_layer_2/intermediate/dense_1/Reshape/shape", "shape": [2], "dtype": "int32"}, {"name": "bert/encoder/layer_3/ffn_layer_2/intermediate/dense/kernel", "shape": [128, 512], "dtype": "float32"}, {"name": "bert/encoder/layer_3/ffn_layer_2/intermediate/dense/bias", "shape": [512], "dtype": "float32"}, {"name": "bert/encoder/layer_3/ffn_layer_2/intermediate/dense_1/Reshape_1/shape", "shape": [3], "dtype": "int32"}, {"name": "bert/encoder/layer_3/ffn_layer_2/output/dense_1/Reshape/shape", "shape": [2], "dtype": "int32"}, {"name": "bert/encoder/layer_3/ffn_layer_2/output/dense/kernel", "shape": [512, 128], "dtype": "float32"}, {"name": "bert/encoder/layer_3/ffn_layer_2/output/dense/bias", "shape": [128], "dtype": "float32"}, {"name": "bert/encoder/layer_3/ffn_layer_2/output/dense_1/Reshape_1/shape", "shape": [3], "dtype": "int32"}, {"name": "bert/encoder/layer_3/ffn_layer_1/intermediate/dense_1/Reshape/shape", "shape": [2], "dtype": "int32"}, {"name": "bert/encoder/layer_3/ffn_layer_1/intermediate/dense/kernel", "shape": [128, 512], "dtype": "float32"}, {"name": "bert/encoder/layer_3/ffn_layer_1/intermediate/dense/bias", "shape": [512], "dtype": "float32"}, {"name": "bert/encoder/layer_3/ffn_layer_1/intermediate/dense_1/Reshape_1/shape", "shape": [3], "dtype": "int32"}, {"name": "bert/encoder/layer_3/ffn_layer_1/output/dense_1/Reshape/shape", "shape": [2], "dtype": "int32"}, {"name": "bert/encoder/layer_3/ffn_layer_1/output/dense/kernel", "shape": [512, 128], "dtype": "float32"}, {"name": "bert/encoder/layer_3/ffn_layer_1/output/dense/bias", "shape": [128], "dtype": "float32"}, {"name": "bert/encoder/layer_3/ffn_layer_1/output/dense_1/Reshape_1/shape", "shape": [3], "dtype": "int32"}, {"name": "bert/encoder/layer_3/ffn_layer_0/intermediate/dense_1/Reshape/shape", "shape": [2], "dtype": "int32"}, {"name": "bert/encoder/layer_3/ffn_layer_0/intermediate/dense/kernel", "shape": [128, 512], "dtype": "float32"}, {"name": "bert/encoder/layer_3/ffn_layer_0/intermediate/dense/bias", "shape": [512], "dtype": "float32"}, {"name": "bert/encoder/layer_3/ffn_layer_0/intermediate/dense_1/Reshape_1/shape", "shape": [3], "dtype": "int32"}, {"name": "bert/encoder/layer_3/ffn_layer_0/output/dense_1/Reshape/shape", "shape": [2], "dtype": "int32"}, {"name": "bert/encoder/layer_3/ffn_layer_0/output/dense/kernel", "shape": [512, 128], "dtype": "float32"}, {"name": "bert/encoder/layer_3/ffn_layer_0/output/dense/bias", "shape": [128], "dtype": "float32"}, {"name": "bert/encoder/layer_3/ffn_layer_0/output/dense_1/Reshape_1/shape", "shape": [3], "dtype": "int32"}, {"name": "bert/encoder/layer_3/bottleneck/input/FakeLayerNorm/beta", "shape": [128], "dtype": "float32"}, {"name": "bert/encoder/layer_3/attention/self/Mul/y", "shape": [], "dtype": "float32"}, {"name": "bert/encoder/layer_3/attention/self/query_1/Reshape/shape", "shape": [2], "dtype": "int32"}, {"name": "bert/encoder/layer_3/attention/self/query/kernel", "shape": [128, 128], "dtype": "float32"}, {"name": "bert/encoder/layer_3/attention/self/query/bias", "shape": [128], "dtype": "float32"}, {"name": "bert/encoder/layer_3/attention/self/query_1/Reshape_1/shape", "shape": [4], "dtype": "int32"}, {"name": "bert/encoder/layer_3/attention/self/transpose/perm", "shape": [4], "dtype": "int32"}, {"name": "bert/encoder/layer_3/bottleneck/attention/dense_1/Reshape/shape", "shape": [2], "dtype": "int32"}, {"name": "bert/encoder/layer_3/bottleneck/attention/dense/kernel", "shape": [256, 128], "dtype": "float32"}, {"name": "bert/encoder/layer_3/bottleneck/attention/dense/bias", "shape": [128], "dtype": "float32"}, {"name": "bert/encoder/layer_3/bottleneck/attention/dense_1/Reshape_1/shape", "shape": [3], "dtype": "int32"}, {"name": "bert/encoder/layer_3/bottleneck/attention/FakeLayerNorm/gamma", "shape": [128], "dtype": "float32"}, {"name": "bert/encoder/layer_3/bottleneck/attention/FakeLayerNorm/beta", "shape": [128], "dtype": "float32"}, {"name": "bert/encoder/layer_3/attention/self/key_1/Reshape/shape", "shape": [2], "dtype": "int32"}, {"name": "bert/encoder/layer_3/attention/self/key/kernel", "shape": [128, 128], "dtype": "float32"}, {"name": "bert/encoder/layer_3/attention/self/key/bias", "shape": [128], "dtype": "float32"}, {"name": "bert/encoder/layer_3/attention/self/key_1/Reshape_1/shape", "shape": [4], "dtype": "int32"}, {"name": "bert/encoder/layer_3/attention/self/transpose_1/perm", "shape": [4], "dtype": "int32"}, {"name": "bert/encoder/layer_3/attention/self/sub/x", "shape": [], "dtype": "float32"}, {"name": "bert/encoder/layer_3/attention/self/ExpandDims/dim", "shape": [1], "dtype": "int32"}, {"name": "bert/encoder/layer_3/attention/self/mul_1/y", "shape": [], "dtype": "float32"}, {"name": "bert/encoder/layer_3/attention/self/value_1/Reshape/shape", "shape": [2], "dtype": "int32"}, {"name": "bert/encoder/layer_3/attention/self/value/kernel", "shape": [256, 128], "dtype": "float32"}, {"name": "bert/encoder/layer_3/attention/self/value/bias", "shape": [128], "dtype": "float32"}, {"name": "bert/encoder/layer_3/attention/self/value_1/Reshape_1/shape", "shape": [4], "dtype": "int32"}, {"name": "bert/encoder/layer_3/attention/self/transpose_2/perm", "shape": [4], "dtype": "int32"}, {"name": "bert/encoder/layer_3/attention/self/transpose_3/perm", "shape": [4], "dtype": "int32"}, {"name": "bert/encoder/layer_3/attention/output/dense_1/Reshape/shape", "shape": [2], "dtype": "int32"}, {"name": "bert/encoder/layer_3/attention/output/dense/kernel", "shape": [128, 128], "dtype": "float32"}, {"name": "bert/encoder/layer_3/attention/output/dense/bias", "shape": [128], "dtype": "float32"}, {"name": "bert/encoder/layer_3/attention/output/dense_1/Reshape_1/shape", "shape": [3], "dtype": "int32"}, {"name": "bert/encoder/layer_3/bottleneck/input/dense_1/Reshape/shape", "shape": [2], "dtype": "int32"}, {"name": "bert/encoder/layer_3/bottleneck/input/dense/kernel", "shape": [256, 128], "dtype": "float32"}, {"name": "bert/encoder/layer_3/bottleneck/input/dense/bias", "shape": [128], "dtype": "float32"}, {"name": "bert/encoder/layer_3/bottleneck/input/dense_1/Reshape_1/shape", "shape": [3], "dtype": "int32"}, {"name": "bert/encoder/layer_3/bottleneck/input/FakeLayerNorm/gamma", "shape": [128], "dtype": "float32"}, {"name": "bert/encoder/layer_3/attention/output/FakeLayerNorm/gamma", "shape": [128], "dtype": "float32"}, {"name": "bert/encoder/layer_3/attention/output/FakeLayerNorm/beta", "shape": [128], "dtype": "float32"}, {"name": "bert/encoder/layer_3/ffn_layer_0/output/FakeLayerNorm/gamma", "shape": [128], "dtype": "float32"}, {"name": "bert/encoder/layer_3/ffn_layer_0/output/FakeLayerNorm/beta", "shape": [128], "dtype": "float32"}, {"name": "bert/encoder/layer_3/ffn_layer_1/output/FakeLayerNorm/gamma", "shape": [128], "dtype": "float32"}, {"name": "bert/encoder/layer_3/ffn_layer_1/output/FakeLayerNorm/beta", "shape": [128], "dtype": "float32"}, {"name": "bert/encoder/layer_3/ffn_layer_2/output/FakeLayerNorm/gamma", "shape": [128], "dtype": "float32"}, {"name": "bert/encoder/layer_3/ffn_layer_2/output/FakeLayerNorm/beta", "shape": [128], "dtype": "float32"}, {"name": "bert/encoder/layer_3/output/FakeLayerNorm/gamma", "shape": [128], "dtype": "float32"}, {"name": "bert/encoder/layer_3/output/FakeLayerNorm/beta", "shape": [128], "dtype": "float32"}, {"name": "bert/encoder/layer_3/output/bottleneck/dense_1/Reshape/shape", "shape": [2], "dtype": "int32"}, {"name": "bert/encoder/layer_3/output/bottleneck/dense/kernel", "shape": [128, 256], "dtype": "float32"}, {"name": "bert/encoder/layer_3/output/bottleneck/dense/bias", "shape": [256], "dtype": "float32"}, {"name": "bert/encoder/layer_3/output/bottleneck/dense_1/Reshape_1/shape", "shape": [3], "dtype": "int32"}, {"name": "bert/encoder/layer_2/intermediate/dense_1/Reshape/shape", "shape": [2], "dtype": "int32"}, {"name": "bert/encoder/layer_2/intermediate/dense/kernel", "shape": [128, 512], "dtype": "float32"}, {"name": "bert/encoder/layer_2/intermediate/dense/bias", "shape": [512], "dtype": "float32"}, {"name": "bert/encoder/layer_2/intermediate/dense_1/Reshape_1/shape", "shape": [3], "dtype": "int32"}, {"name": "bert/encoder/layer_2/output/dense_1/Reshape/shape", "shape": [2], "dtype": "int32"}, {"name": "bert/encoder/layer_2/output/dense/kernel", "shape": [512, 128], "dtype": "float32"}, {"name": "bert/encoder/layer_2/output/dense/bias", "shape": [128], "dtype": "float32"}, {"name": "bert/encoder/layer_2/output/dense_1/Reshape_1/shape", "shape": [3], "dtype": "int32"}, {"name": "bert/encoder/layer_2/ffn_layer_2/intermediate/dense_1/Reshape/shape", "shape": [2], "dtype": "int32"}, {"name": "bert/encoder/layer_2/ffn_layer_2/intermediate/dense/kernel", "shape": [128, 512], "dtype": "float32"}, {"name": "bert/encoder/layer_2/ffn_layer_2/intermediate/dense/bias", "shape": [512], "dtype": "float32"}, {"name": "bert/encoder/layer_2/ffn_layer_2/intermediate/dense_1/Reshape_1/shape", "shape": [3], "dtype": "int32"}, {"name": "bert/encoder/layer_2/ffn_layer_2/output/dense_1/Reshape/shape", "shape": [2], "dtype": "int32"}, {"name": "bert/encoder/layer_2/ffn_layer_2/output/dense/kernel", "shape": [512, 128], "dtype": "float32"}, {"name": "bert/encoder/layer_2/ffn_layer_2/output/dense/bias", "shape": [128], "dtype": "float32"}, {"name": "bert/encoder/layer_2/ffn_layer_2/output/dense_1/Reshape_1/shape", "shape": [3], "dtype": "int32"}, {"name": "bert/encoder/layer_2/ffn_layer_1/intermediate/dense_1/Reshape/shape", "shape": [2], "dtype": "int32"}, {"name": "bert/encoder/layer_2/ffn_layer_1/intermediate/dense/kernel", "shape": [128, 512], "dtype": "float32"}, {"name": "bert/encoder/layer_2/ffn_layer_1/intermediate/dense/bias", "shape": [512], "dtype": "float32"}, {"name": "bert/encoder/layer_2/ffn_layer_1/intermediate/dense_1/Reshape_1/shape", "shape": [3], "dtype": "int32"}, {"name": "bert/encoder/layer_2/ffn_layer_1/output/dense_1/Reshape/shape", "shape": [2], "dtype": "int32"}, {"name": "bert/encoder/layer_2/ffn_layer_1/output/dense/kernel", "shape": [512, 128], "dtype": "float32"}, {"name": "bert/encoder/layer_2/ffn_layer_1/output/dense/bias", "shape": [128], "dtype": "float32"}, {"name": "bert/encoder/layer_2/ffn_layer_1/output/dense_1/Reshape_1/shape", "shape": [3], "dtype": "int32"}, {"name": "bert/encoder/layer_2/ffn_layer_0/intermediate/dense_1/Reshape/shape", "shape": [2], "dtype": "int32"}, {"name": "bert/encoder/layer_2/ffn_layer_0/intermediate/dense/kernel", "shape": [128, 512], "dtype": "float32"}, {"name": "bert/encoder/layer_2/ffn_layer_0/intermediate/dense/bias", "shape": [512], "dtype": "float32"}, {"name": "bert/encoder/layer_2/ffn_layer_0/intermediate/dense_1/Reshape_1/shape", "shape": [3], "dtype": "int32"}, {"name": "bert/encoder/layer_2/ffn_layer_0/output/dense_1/Reshape/shape", "shape": [2], "dtype": "int32"}, {"name": "bert/encoder/layer_2/ffn_layer_0/output/dense/kernel", "shape": [512, 128], "dtype": "float32"}, {"name": "bert/encoder/layer_2/ffn_layer_0/output/dense/bias", "shape": [128], "dtype": "float32"}, {"name": "bert/encoder/layer_2/ffn_layer_0/output/dense_1/Reshape_1/shape", "shape": [3], "dtype": "int32"}, {"name": "bert/encoder/layer_2/bottleneck/input/FakeLayerNorm/beta", "shape": [128], "dtype": "float32"}, {"name": "bert/encoder/layer_2/attention/self/Mul/y", "shape": [], "dtype": "float32"}, {"name": "bert/encoder/layer_2/attention/self/query_1/Reshape/shape", "shape": [2], "dtype": "int32"}, {"name": "bert/encoder/layer_2/attention/self/query/kernel", "shape": [128, 128], "dtype": "float32"}, {"name": "bert/encoder/layer_2/attention/self/query/bias", "shape": [128], "dtype": "float32"}, {"name": "bert/encoder/layer_2/attention/self/query_1/Reshape_1/shape", "shape": [4], "dtype": "int32"}, {"name": "bert/encoder/layer_2/attention/self/transpose/perm", "shape": [4], "dtype": "int32"}, {"name": "bert/encoder/layer_2/bottleneck/attention/dense_1/Reshape/shape", "shape": [2], "dtype": "int32"}, {"name": "bert/encoder/layer_2/bottleneck/attention/dense/kernel", "shape": [256, 128], "dtype": "float32"}, {"name": "bert/encoder/layer_2/bottleneck/attention/dense/bias", "shape": [128], "dtype": "float32"}, {"name": "bert/encoder/layer_2/bottleneck/attention/dense_1/Reshape_1/shape", "shape": [3], "dtype": "int32"}, {"name": "bert/encoder/layer_2/bottleneck/attention/FakeLayerNorm/gamma", "shape": [128], "dtype": "float32"}, {"name": "bert/encoder/layer_2/bottleneck/attention/FakeLayerNorm/beta", "shape": [128], "dtype": "float32"}, {"name": "bert/encoder/layer_2/attention/self/key_1/Reshape/shape", "shape": [2], "dtype": "int32"}, {"name": "bert/encoder/layer_2/attention/self/key/kernel", "shape": [128, 128], "dtype": "float32"}, {"name": "bert/encoder/layer_2/attention/self/key/bias", "shape": [128], "dtype": "float32"}, {"name": "bert/encoder/layer_2/attention/self/key_1/Reshape_1/shape", "shape": [4], "dtype": "int32"}, {"name": "bert/encoder/layer_2/attention/self/transpose_1/perm", "shape": [4], "dtype": "int32"}, {"name": "bert/encoder/layer_2/attention/self/sub/x", "shape": [], "dtype": "float32"}, {"name": "bert/encoder/layer_2/attention/self/ExpandDims/dim", "shape": [1], "dtype": "int32"}, {"name": "bert/encoder/layer_2/attention/self/mul_1/y", "shape": [], "dtype": "float32"}, {"name": "bert/encoder/layer_2/attention/self/value_1/Reshape/shape", "shape": [2], "dtype": "int32"}, {"name": "bert/encoder/layer_2/attention/self/value/kernel", "shape": [256, 128], "dtype": "float32"}, {"name": "bert/encoder/layer_2/attention/self/value/bias", "shape": [128], "dtype": "float32"}, {"name": "bert/encoder/layer_2/attention/self/value_1/Reshape_1/shape", "shape": [4], "dtype": "int32"}, {"name": "bert/encoder/layer_2/attention/self/transpose_2/perm", "shape": [4], "dtype": "int32"}, {"name": "bert/encoder/layer_2/attention/self/transpose_3/perm", "shape": [4], "dtype": "int32"}, {"name": "bert/encoder/layer_2/attention/output/dense_1/Reshape/shape", "shape": [2], "dtype": "int32"}, {"name": "bert/encoder/layer_2/attention/output/dense/kernel", "shape": [128, 128], "dtype": "float32"}, {"name": "bert/encoder/layer_2/attention/output/dense/bias", "shape": [128], "dtype": "float32"}, {"name": "bert/encoder/layer_2/attention/output/dense_1/Reshape_1/shape", "shape": [3], "dtype": "int32"}, {"name": "bert/encoder/layer_2/bottleneck/input/dense_1/Reshape/shape", "shape": [2], "dtype": "int32"}, {"name": "bert/encoder/layer_2/bottleneck/input/dense/kernel", "shape": [256, 128], "dtype": "float32"}, {"name": "bert/encoder/layer_2/bottleneck/input/dense/bias", "shape": [128], "dtype": "float32"}, {"name": "bert/encoder/layer_2/bottleneck/input/dense_1/Reshape_1/shape", "shape": [3], "dtype": "int32"}, {"name": "bert/encoder/layer_2/bottleneck/input/FakeLayerNorm/gamma", "shape": [128], "dtype": "float32"}, {"name": "bert/encoder/layer_2/attention/output/FakeLayerNorm/gamma", "shape": [128], "dtype": "float32"}, {"name": "bert/encoder/layer_2/attention/output/FakeLayerNorm/beta", "shape": [128], "dtype": "float32"}, {"name": "bert/encoder/layer_2/ffn_layer_0/output/FakeLayerNorm/gamma", "shape": [128], "dtype": "float32"}, {"name": "bert/encoder/layer_2/ffn_layer_0/output/FakeLayerNorm/beta", "shape": [128], "dtype": "float32"}, {"name": "bert/encoder/layer_2/ffn_layer_1/output/FakeLayerNorm/gamma", "shape": [128], "dtype": "float32"}, {"name": "bert/encoder/layer_2/ffn_layer_1/output/FakeLayerNorm/beta", "shape": [128], "dtype": "float32"}, {"name": "bert/encoder/layer_2/ffn_layer_2/output/FakeLayerNorm/gamma", "shape": [128], "dtype": "float32"}, {"name": "bert/encoder/layer_2/ffn_layer_2/output/FakeLayerNorm/beta", "shape": [128], "dtype": "float32"}, {"name": "bert/encoder/layer_2/output/FakeLayerNorm/gamma", "shape": [128], "dtype": "float32"}, {"name": "bert/encoder/layer_2/output/FakeLayerNorm/beta", "shape": [128], "dtype": "float32"}, {"name": "bert/encoder/layer_2/output/bottleneck/dense_1/Reshape/shape", "shape": [2], "dtype": "int32"}, {"name": "bert/encoder/layer_2/output/bottleneck/dense/kernel", "shape": [128, 256], "dtype": "float32"}, {"name": "bert/encoder/layer_2/output/bottleneck/dense/bias", "shape": [256], "dtype": "float32"}, {"name": "bert/encoder/layer_2/output/bottleneck/dense_1/Reshape_1/shape", "shape": [3], "dtype": "int32"}, {"name": "bert/encoder/layer_1/intermediate/dense_1/Reshape/shape", "shape": [2], "dtype": "int32"}, {"name": "bert/encoder/layer_1/intermediate/dense/kernel", "shape": [128, 512], "dtype": "float32"}, {"name": "bert/encoder/layer_1/intermediate/dense/bias", "shape": [512], "dtype": "float32"}, {"name": "bert/encoder/layer_1/intermediate/dense_1/Reshape_1/shape", "shape": [3], "dtype": "int32"}, {"name": "bert/encoder/layer_1/output/dense_1/Reshape/shape", "shape": [2], "dtype": "int32"}, {"name": "bert/encoder/layer_1/output/dense/kernel", "shape": [512, 128], "dtype": "float32"}, {"name": "bert/encoder/layer_1/output/dense/bias", "shape": [128], "dtype": "float32"}, {"name": "bert/encoder/layer_1/output/dense_1/Reshape_1/shape", "shape": [3], "dtype": "int32"}, {"name": "bert/encoder/layer_1/ffn_layer_2/intermediate/dense_1/Reshape/shape", "shape": [2], "dtype": "int32"}, {"name": "bert/encoder/layer_1/ffn_layer_2/intermediate/dense/kernel", "shape": [128, 512], "dtype": "float32"}, {"name": "bert/encoder/layer_1/ffn_layer_2/intermediate/dense/bias", "shape": [512], "dtype": "float32"}, {"name": "bert/encoder/layer_1/ffn_layer_2/intermediate/dense_1/Reshape_1/shape", "shape": [3], "dtype": "int32"}, {"name": "bert/encoder/layer_1/ffn_layer_2/output/dense_1/Reshape/shape", "shape": [2], "dtype": "int32"}, {"name": "bert/encoder/layer_1/ffn_layer_2/output/dense/kernel", "shape": [512, 128], "dtype": "float32"}, {"name": "bert/encoder/layer_1/ffn_layer_2/output/dense/bias", "shape": [128], "dtype": "float32"}, {"name": "bert/encoder/layer_1/ffn_layer_2/output/dense_1/Reshape_1/shape", "shape": [3], "dtype": "int32"}, {"name": "bert/encoder/layer_1/ffn_layer_1/intermediate/dense_1/Reshape/shape", "shape": [2], "dtype": "int32"}, {"name": "bert/encoder/layer_1/ffn_layer_1/intermediate/dense/kernel", "shape": [128, 512], "dtype": "float32"}, {"name": "bert/encoder/layer_1/ffn_layer_1/intermediate/dense/bias", "shape": [512], "dtype": "float32"}, {"name": "bert/encoder/layer_1/ffn_layer_1/intermediate/dense_1/Reshape_1/shape", "shape": [3], "dtype": "int32"}, {"name": "bert/encoder/layer_1/ffn_layer_1/output/dense_1/Reshape/shape", "shape": [2], "dtype": "int32"}, {"name": "bert/encoder/layer_1/ffn_layer_1/output/dense/kernel", "shape": [512, 128], "dtype": "float32"}, {"name": "bert/encoder/layer_1/ffn_layer_1/output/dense/bias", "shape": [128], "dtype": "float32"}, {"name": "bert/encoder/layer_1/ffn_layer_1/output/dense_1/Reshape_1/shape", "shape": [3], "dtype": "int32"}, {"name": "bert/encoder/layer_1/ffn_layer_0/intermediate/dense_1/Reshape/shape", "shape": [2], "dtype": "int32"}, {"name": "bert/encoder/layer_1/ffn_layer_0/intermediate/dense/kernel", "shape": [128, 512], "dtype": "float32"}, {"name": "bert/encoder/layer_1/ffn_layer_0/intermediate/dense/bias", "shape": [512], "dtype": "float32"}, {"name": "bert/encoder/layer_1/ffn_layer_0/intermediate/dense_1/Reshape_1/shape", "shape": [3], "dtype": "int32"}, {"name": "bert/encoder/layer_1/ffn_layer_0/output/dense_1/Reshape/shape", "shape": [2], "dtype": "int32"}, {"name": "bert/encoder/layer_1/ffn_layer_0/output/dense/kernel", "shape": [512, 128], "dtype": "float32"}, {"name": "bert/encoder/layer_1/ffn_layer_0/output/dense/bias", "shape": [128], "dtype": "float32"}, {"name": "bert/encoder/layer_1/ffn_layer_0/output/dense_1/Reshape_1/shape", "shape": [3], "dtype": "int32"}, {"name": "bert/encoder/layer_1/bottleneck/input/FakeLayerNorm/beta", "shape": [128], "dtype": "float32"}, {"name": "bert/encoder/layer_1/attention/self/Mul/y", "shape": [], "dtype": "float32"}, {"name": "bert/encoder/layer_1/attention/self/query_1/Reshape/shape", "shape": [2], "dtype": "int32"}, {"name": "bert/encoder/layer_1/attention/self/query/kernel", "shape": [128, 128], "dtype": "float32"}, {"name": "bert/encoder/layer_1/attention/self/query/bias", "shape": [128], "dtype": "float32"}, {"name": "bert/encoder/layer_1/attention/self/query_1/Reshape_1/shape", "shape": [4], "dtype": "int32"}, {"name": "bert/encoder/layer_1/attention/self/transpose/perm", "shape": [4], "dtype": "int32"}, {"name": "bert/encoder/layer_1/bottleneck/attention/dense_1/Reshape/shape", "shape": [2], "dtype": "int32"}, {"name": "bert/encoder/layer_1/bottleneck/attention/dense/kernel", "shape": [256, 128], "dtype": "float32"}, {"name": "bert/encoder/layer_1/bottleneck/attention/dense/bias", "shape": [128], "dtype": "float32"}, {"name": "bert/encoder/layer_1/bottleneck/attention/dense_1/Reshape_1/shape", "shape": [3], "dtype": "int32"}, {"name": "bert/encoder/layer_1/bottleneck/attention/FakeLayerNorm/gamma", "shape": [128], "dtype": "float32"}, {"name": "bert/encoder/layer_1/bottleneck/attention/FakeLayerNorm/beta", "shape": [128], "dtype": "float32"}, {"name": "bert/encoder/layer_1/attention/self/key_1/Reshape/shape", "shape": [2], "dtype": "int32"}, {"name": "bert/encoder/layer_1/attention/self/key/kernel", "shape": [128, 128], "dtype": "float32"}, {"name": "bert/encoder/layer_1/attention/self/key/bias", "shape": [128], "dtype": "float32"}, {"name": "bert/encoder/layer_1/attention/self/key_1/Reshape_1/shape", "shape": [4], "dtype": "int32"}, {"name": "bert/encoder/layer_1/attention/self/transpose_1/perm", "shape": [4], "dtype": "int32"}, {"name": "bert/encoder/layer_1/attention/self/sub/x", "shape": [], "dtype": "float32"}, {"name": "bert/encoder/layer_1/attention/self/ExpandDims/dim", "shape": [1], "dtype": "int32"}, {"name": "bert/encoder/layer_1/attention/self/mul_1/y", "shape": [], "dtype": "float32"}, {"name": "bert/encoder/layer_1/attention/self/value_1/Reshape/shape", "shape": [2], "dtype": "int32"}, {"name": "bert/encoder/layer_1/attention/self/value/kernel", "shape": [256, 128], "dtype": "float32"}, {"name": "bert/encoder/layer_1/attention/self/value/bias", "shape": [128], "dtype": "float32"}, {"name": "bert/encoder/layer_1/attention/self/value_1/Reshape_1/shape", "shape": [4], "dtype": "int32"}, {"name": "bert/encoder/layer_1/attention/self/transpose_2/perm", "shape": [4], "dtype": "int32"}, {"name": "bert/encoder/layer_1/attention/self/transpose_3/perm", "shape": [4], "dtype": "int32"}, {"name": "bert/encoder/layer_1/attention/output/dense_1/Reshape/shape", "shape": [2], "dtype": "int32"}, {"name": "bert/encoder/layer_1/attention/output/dense/kernel", "shape": [128, 128], "dtype": "float32"}, {"name": "bert/encoder/layer_1/attention/output/dense/bias", "shape": [128], "dtype": "float32"}, {"name": "bert/encoder/layer_1/attention/output/dense_1/Reshape_1/shape", "shape": [3], "dtype": "int32"}, {"name": "bert/encoder/layer_1/bottleneck/input/dense_1/Reshape/shape", "shape": [2], "dtype": "int32"}, {"name": "bert/encoder/layer_1/bottleneck/input/dense/kernel", "shape": [256, 128], "dtype": "float32"}, {"name": "bert/encoder/layer_1/bottleneck/input/dense/bias", "shape": [128], "dtype": "float32"}, {"name": "bert/encoder/layer_1/bottleneck/input/dense_1/Reshape_1/shape", "shape": [3], "dtype": "int32"}, {"name": "bert/encoder/layer_1/bottleneck/input/FakeLayerNorm/gamma", "shape": [128], "dtype": "float32"}, {"name": "bert/encoder/layer_1/attention/output/FakeLayerNorm/gamma", "shape": [128], "dtype": "float32"}, {"name": "bert/encoder/layer_1/attention/output/FakeLayerNorm/beta", "shape": [128], "dtype": "float32"}, {"name": "bert/encoder/layer_1/ffn_layer_0/output/FakeLayerNorm/gamma", "shape": [128], "dtype": "float32"}, {"name": "bert/encoder/layer_1/ffn_layer_0/output/FakeLayerNorm/beta", "shape": [128], "dtype": "float32"}, {"name": "bert/encoder/layer_1/ffn_layer_1/output/FakeLayerNorm/gamma", "shape": [128], "dtype": "float32"}, {"name": "bert/encoder/layer_1/ffn_layer_1/output/FakeLayerNorm/beta", "shape": [128], "dtype": "float32"}, {"name": "bert/encoder/layer_1/ffn_layer_2/output/FakeLayerNorm/gamma", "shape": [128], "dtype": "float32"}, {"name": "bert/encoder/layer_1/ffn_layer_2/output/FakeLayerNorm/beta", "shape": [128], "dtype": "float32"}, {"name": "bert/encoder/layer_1/output/FakeLayerNorm/gamma", "shape": [128], "dtype": "float32"}, {"name": "bert/encoder/layer_1/output/FakeLayerNorm/beta", "shape": [128], "dtype": "float32"}, {"name": "bert/encoder/layer_1/output/bottleneck/dense_1/Reshape/shape", "shape": [2], "dtype": "int32"}, {"name": "bert/encoder/layer_1/output/bottleneck/dense/kernel", "shape": [128, 256], "dtype": "float32"}, {"name": "bert/encoder/layer_1/output/bottleneck/dense/bias", "shape": [256], "dtype": "float32"}, {"name": "bert/encoder/layer_1/output/bottleneck/dense_1/Reshape_1/shape", "shape": [3], "dtype": "int32"}, {"name": "bert/encoder/layer_0/intermediate/dense_1/Reshape/shape", "shape": [2], "dtype": "int32"}, {"name": "bert/encoder/layer_0/intermediate/dense/kernel", "shape": [128, 512], "dtype": "float32"}, {"name": "bert/encoder/layer_0/intermediate/dense/bias", "shape": [512], "dtype": "float32"}, {"name": "bert/encoder/layer_0/intermediate/dense_1/Reshape_1/shape", "shape": [3], "dtype": "int32"}, {"name": "bert/encoder/layer_0/output/dense_1/Reshape/shape", "shape": [2], "dtype": "int32"}, {"name": "bert/encoder/layer_0/output/dense/kernel", "shape": [512, 128], "dtype": "float32"}, {"name": "bert/encoder/layer_0/output/dense/bias", "shape": [128], "dtype": "float32"}, {"name": "bert/encoder/layer_0/output/dense_1/Reshape_1/shape", "shape": [3], "dtype": "int32"}, {"name": "bert/encoder/layer_0/ffn_layer_2/intermediate/dense_1/Reshape/shape", "shape": [2], "dtype": "int32"}, {"name": "bert/encoder/layer_0/ffn_layer_2/intermediate/dense/kernel", "shape": [128, 512], "dtype": "float32"}, {"name": "bert/encoder/layer_0/ffn_layer_2/intermediate/dense/bias", "shape": [512], "dtype": "float32"}, {"name": "bert/encoder/layer_0/ffn_layer_2/intermediate/dense_1/Reshape_1/shape", "shape": [3], "dtype": "int32"}, {"name": "bert/encoder/layer_0/ffn_layer_2/output/dense_1/Reshape/shape", "shape": [2], "dtype": "int32"}, {"name": "bert/encoder/layer_0/ffn_layer_2/output/dense/kernel", "shape": [512, 128], "dtype": "float32"}, {"name": "bert/encoder/layer_0/ffn_layer_2/output/dense/bias", "shape": [128], "dtype": "float32"}, {"name": "bert/encoder/layer_0/ffn_layer_2/output/dense_1/Reshape_1/shape", "shape": [3], "dtype": "int32"}, {"name": "bert/encoder/layer_0/ffn_layer_1/intermediate/dense_1/Reshape/shape", "shape": [2], "dtype": "int32"}, {"name": "bert/encoder/layer_0/ffn_layer_1/intermediate/dense/kernel", "shape": [128, 512], "dtype": "float32"}, {"name": "bert/encoder/layer_0/ffn_layer_1/intermediate/dense/bias", "shape": [512], "dtype": "float32"}, {"name": "bert/encoder/layer_0/ffn_layer_1/intermediate/dense_1/Reshape_1/shape", "shape": [3], "dtype": "int32"}, {"name": "bert/encoder/layer_0/ffn_layer_1/output/dense_1/Reshape/shape", "shape": [2], "dtype": "int32"}, {"name": "bert/encoder/layer_0/ffn_layer_1/output/dense/kernel", "shape": [512, 128], "dtype": "float32"}, {"name": "bert/encoder/layer_0/ffn_layer_1/output/dense/bias", "shape": [128], "dtype": "float32"}, {"name": "bert/encoder/layer_0/ffn_layer_1/output/dense_1/Reshape_1/shape", "shape": [3], "dtype": "int32"}, {"name": "bert/encoder/layer_0/ffn_layer_0/intermediate/dense_1/Reshape/shape", "shape": [2], "dtype": "int32"}, {"name": "bert/encoder/layer_0/ffn_layer_0/intermediate/dense/kernel", "shape": [128, 512], "dtype": "float32"}, {"name": "bert/encoder/layer_0/ffn_layer_0/intermediate/dense/bias", "shape": [512], "dtype": "float32"}, {"name": "bert/encoder/layer_0/ffn_layer_0/intermediate/dense_1/Reshape_1/shape", "shape": [3], "dtype": "int32"}, {"name": "bert/encoder/layer_0/ffn_layer_0/output/dense_1/Reshape/shape", "shape": [2], "dtype": "int32"}, {"name": "bert/encoder/layer_0/ffn_layer_0/output/dense/kernel", "shape": [512, 128], "dtype": "float32"}, {"name": "bert/encoder/layer_0/ffn_layer_0/output/dense/bias", "shape": [128], "dtype": "float32"}, {"name": "bert/encoder/layer_0/ffn_layer_0/output/dense_1/Reshape_1/shape", "shape": [3], "dtype": "int32"}, {"name": "bert/encoder/layer_0/bottleneck/input/FakeLayerNorm/beta", "shape": [128], "dtype": "float32"}, {"name": "bert/encoder/layer_0/attention/self/Mul/y", "shape": [], "dtype": "float32"}, {"name": "bert/encoder/layer_0/attention/self/query_1/Reshape/shape", "shape": [2], "dtype": "int32"}, {"name": "bert/encoder/layer_0/attention/self/query/kernel", "shape": [128, 128], "dtype": "float32"}, {"name": "bert/encoder/layer_0/attention/self/query/bias", "shape": [128], "dtype": "float32"}, {"name": "bert/encoder/layer_0/attention/self/query_1/Reshape_1/shape", "shape": [4], "dtype": "int32"}, {"name": "bert/encoder/layer_0/attention/self/transpose/perm", "shape": [4], "dtype": "int32"}, {"name": "bert/encoder/layer_0/bottleneck/attention/dense_1/Reshape/shape", "shape": [2], "dtype": "int32"}, {"name": "bert/encoder/layer_0/bottleneck/attention/dense/kernel", "shape": [256, 128], "dtype": "float32"}, {"name": "bert/encoder/layer_0/bottleneck/attention/dense/bias", "shape": [128], "dtype": "float32"}, {"name": "bert/encoder/layer_0/bottleneck/attention/dense_1/Reshape_1/shape", "shape": [3], "dtype": "int32"}, {"name": "bert/encoder/layer_0/bottleneck/attention/FakeLayerNorm/gamma", "shape": [128], "dtype": "float32"}, {"name": "bert/encoder/layer_0/bottleneck/attention/FakeLayerNorm/beta", "shape": [128], "dtype": "float32"}, {"name": "bert/encoder/layer_0/attention/self/key_1/Reshape/shape", "shape": [2], "dtype": "int32"}, {"name": "bert/encoder/layer_0/attention/self/key/kernel", "shape": [128, 128], "dtype": "float32"}, {"name": "bert/encoder/layer_0/attention/self/key/bias", "shape": [128], "dtype": "float32"}, {"name": "bert/encoder/layer_0/attention/self/key_1/Reshape_1/shape", "shape": [4], "dtype": "int32"}, {"name": "bert/encoder/layer_0/attention/self/transpose_1/perm", "shape": [4], "dtype": "int32"}, {"name": "bert/encoder/layer_0/attention/self/sub/x", "shape": [], "dtype": "float32"}, {"name": "bert/encoder/ones", "shape": [1, 128, 1], "dtype": "float32"}, {"name": "bert/encoder/Reshape/shape", "shape": [3], "dtype": "int32"}, {"name": "bert/encoder/layer_0/attention/self/ExpandDims/dim", "shape": [1], "dtype": "int32"}, {"name": "bert/encoder/layer_0/attention/self/mul_1/y", "shape": [], "dtype": "float32"}, {"name": "bert/encoder/layer_0/attention/self/value_1/Reshape/shape", "shape": [2], "dtype": "int32"}, {"name": "bert/encoder/layer_0/attention/self/value/kernel", "shape": [256, 128], "dtype": "float32"}, {"name": "bert/encoder/layer_0/attention/self/value/bias", "shape": [128], "dtype": "float32"}, {"name": "bert/encoder/layer_0/attention/self/value_1/Reshape_1/shape", "shape": [4], "dtype": "int32"}, {"name": "bert/encoder/layer_0/attention/self/transpose_2/perm", "shape": [4], "dtype": "int32"}, {"name": "bert/encoder/layer_0/attention/self/transpose_3/perm", "shape": [4], "dtype": "int32"}, {"name": "bert/encoder/layer_0/attention/output/dense_1/Reshape/shape", "shape": [2], "dtype": "int32"}, {"name": "bert/encoder/layer_0/attention/output/dense/kernel", "shape": [128, 128], "dtype": "float32"}, {"name": "bert/encoder/layer_0/attention/output/dense/bias", "shape": [128], "dtype": "float32"}, {"name": "bert/encoder/layer_0/attention/output/dense_1/Reshape_1/shape", "shape": [3], "dtype": "int32"}, {"name": "bert/encoder/layer_0/bottleneck/input/dense_1/Reshape/shape", "shape": [2], "dtype": "int32"}, {"name": "bert/encoder/layer_0/bottleneck/input/dense/kernel", "shape": [256, 128], "dtype": "float32"}, {"name": "bert/encoder/layer_0/bottleneck/input/dense/bias", "shape": [128], "dtype": "float32"}, {"name": "bert/encoder/layer_0/bottleneck/input/dense_1/Reshape_1/shape", "shape": [3], "dtype": "int32"}, {"name": "bert/encoder/layer_0/bottleneck/input/FakeLayerNorm/gamma", "shape": [128], "dtype": "float32"}, {"name": "bert/encoder/layer_0/attention/output/FakeLayerNorm/gamma", "shape": [128], "dtype": "float32"}, {"name": "bert/encoder/layer_0/attention/output/FakeLayerNorm/beta", "shape": [128], "dtype": "float32"}, {"name": "bert/encoder/layer_0/ffn_layer_0/output/FakeLayerNorm/gamma", "shape": [128], "dtype": "float32"}, {"name": "bert/encoder/layer_0/ffn_layer_0/output/FakeLayerNorm/beta", "shape": [128], "dtype": "float32"}, {"name": "bert/encoder/layer_0/ffn_layer_1/output/FakeLayerNorm/gamma", "shape": [128], "dtype": "float32"}, {"name": "bert/encoder/layer_0/ffn_layer_1/output/FakeLayerNorm/beta", "shape": [128], "dtype": "float32"}, {"name": "bert/encoder/layer_0/ffn_layer_2/output/FakeLayerNorm/gamma", "shape": [128], "dtype": "float32"}, {"name": "bert/encoder/layer_0/ffn_layer_2/output/FakeLayerNorm/beta", "shape": [128], "dtype": "float32"}, {"name": "bert/encoder/layer_0/output/FakeLayerNorm/gamma", "shape": [128], "dtype": "float32"}, {"name": "bert/encoder/layer_0/output/FakeLayerNorm/beta", "shape": [128], "dtype": "float32"}, {"name": "bert/encoder/layer_0/output/bottleneck/dense_1/Reshape/shape", "shape": [2], "dtype": "int32"}, {"name": "bert/encoder/layer_0/output/bottleneck/dense/kernel", "shape": [128, 256], "dtype": "float32"}, {"name": "bert/encoder/layer_0/output/bottleneck/dense/bias", "shape": [256], "dtype": "float32"}, {"name": "bert/encoder/layer_0/output/bottleneck/dense_1/Reshape_1/shape", "shape": [3], "dtype": "int32"}, {"name": "bert/embeddings/strided_slice/stack", "shape": [2], "dtype": "int32"}, {"name": "bert/embeddings/strided_slice/stack_1", "shape": [2], "dtype": "int32"}, {"name": "bert/embeddings/strided_slice/stack_2", "shape": [2], "dtype": "int32"}, {"name": "bert/embeddings/Pad/paddings", "shape": [3, 2], "dtype": "int32"}, {"name": "bert/embeddings/ExpandDims/dim", "shape": [1], "dtype": "int32"}, {"name": "bert/embeddings/Reshape/shape", "shape": [1], "dtype": "int32"}, {"name": "bert/embeddings/one_hot/depth", "shape": [], "dtype": "int32"}, {"name": "bert/embeddings/one_hot/on_value", "shape": [], "dtype": "float32"}, {"name": "bert/embeddings/one_hot/off_value", "shape": [], "dtype": "float32"}, {"name": "bert/embeddings/word_embeddings", "shape": [50000, 128], "dtype": "float32"}, {"name": "bert/embeddings/Reshape_1/shape", "shape": [3], "dtype": "int32"}, {"name": "bert/embeddings/strided_slice_1/stack", "shape": [2], "dtype": "int32"}, {"name": "bert/embeddings/strided_slice_1/stack_1", "shape": [2], "dtype": "int32"}, {"name": "bert/embeddings/strided_slice_1/stack_2", "shape": [2], "dtype": "int32"}, {"name": "bert/embeddings/Pad_1/paddings", "shape": [3, 2], "dtype": "int32"}, {"name": "bert/embeddings/concat/axis", "shape": [], "dtype": "int32"}, {"name": "bert/embeddings/embedding_transformation_1/Reshape/shape", "shape": [2], "dtype": "int32"}, {"name": "bert/embeddings/embedding_transformation/kernel", "shape": [384, 256], "dtype": "float32"}, {"name": "bert/embeddings/embedding_transformation/bias", "shape": [256], "dtype": "float32"}, {"name": "bert/embeddings/embedding_transformation_1/Reshape_1/shape", "shape": [3], "dtype": "int32"}, {"name": "bert/embeddings/Reshape_2", "shape": [1, 128, 256], "dtype": "float32"}, {"name": "bert/embeddings/token_type_embeddings", "shape": [2, 256], "dtype": "float32"}, {"name": "bert/embeddings/embedding_lookup/axis", "shape": [], "dtype": "int32"}, {"name": "bert/embeddings/FakeLayerNorm/gamma", "shape": [256], "dtype": "float32"}, {"name": "bert/embeddings/FakeLayerNorm/beta", "shape": [256], "dtype": "float32"}, {"name": "bert/encoder/layer_0/output/bottleneck/FakeLayerNorm/gamma", "shape": [256], "dtype": "float32"}, {"name": "bert/encoder/layer_0/output/bottleneck/FakeLayerNorm/beta", "shape": [256], "dtype": "float32"}, {"name": "bert/encoder/layer_1/output/bottleneck/FakeLayerNorm/gamma", "shape": [256], "dtype": "float32"}, {"name": "bert/encoder/layer_1/output/bottleneck/FakeLayerNorm/beta", "shape": [256], "dtype": "float32"}, {"name": "bert/encoder/layer_2/output/bottleneck/FakeLayerNorm/gamma", "shape": [256], "dtype": "float32"}, {"name": "bert/encoder/layer_2/output/bottleneck/FakeLayerNorm/beta", "shape": [256], "dtype": "float32"}, {"name": "bert/encoder/layer_3/output/bottleneck/FakeLayerNorm/gamma", "shape": [256], "dtype": "float32"}, {"name": "bert/encoder/layer_3/output/bottleneck/FakeLayerNorm/beta", "shape": [256], "dtype": "float32"}, {"name": "bert/encoder/layer_4/output/bottleneck/FakeLayerNorm/gamma", "shape": [256], "dtype": "float32"}, {"name": "bert/encoder/layer_4/output/bottleneck/FakeLayerNorm/beta", "shape": [256], "dtype": "float32"}, {"name": "bert/encoder/layer_5/output/bottleneck/FakeLayerNorm/gamma", "shape": [256], "dtype": "float32"}, {"name": "bert/encoder/layer_5/output/bottleneck/FakeLayerNorm/beta", "shape": [256], "dtype": "float32"}, {"name": "bert/encoder/layer_6/output/bottleneck/FakeLayerNorm/gamma", "shape": [256], "dtype": "float32"}, {"name": "bert/encoder/layer_6/output/bottleneck/FakeLayerNorm/beta", "shape": [256], "dtype": "float32"}, {"name": "bert/encoder/layer_7/output/bottleneck/FakeLayerNorm/gamma", "shape": [256], "dtype": "float32"}, {"name": "bert/encoder/layer_7/output/bottleneck/FakeLayerNorm/beta", "shape": [256], "dtype": "float32"}, {"name": "bert/encoder/layer_8/output/bottleneck/FakeLayerNorm/gamma", "shape": [256], "dtype": "float32"}, {"name": "bert/encoder/layer_8/output/bottleneck/FakeLayerNorm/beta", "shape": [256], "dtype": "float32"}, {"name": "bert/encoder/layer_9/output/bottleneck/FakeLayerNorm/gamma", "shape": [256], "dtype": "float32"}, {"name": "bert/encoder/layer_9/output/bottleneck/FakeLayerNorm/beta", "shape": [256], "dtype": "float32"}, {"name": "bert/encoder/layer_10/output/bottleneck/FakeLayerNorm/gamma", "shape": [256], "dtype": "float32"}, {"name": "bert/encoder/layer_10/output/bottleneck/FakeLayerNorm/beta", "shape": [256], "dtype": "float32"}, {"name": "bert/encoder/layer_11/output/bottleneck/FakeLayerNorm/gamma", "shape": [256], "dtype": "float32"}, {"name": "bert/encoder/layer_11/output/bottleneck/FakeLayerNorm/beta", "shape": [256], "dtype": "float32"}, {"name": "bert/encoder/layer_12/output/bottleneck/FakeLayerNorm/gamma", "shape": [256], "dtype": "float32"}, {"name": "bert/encoder/layer_12/output/bottleneck/FakeLayerNorm/beta", "shape": [256], "dtype": "float32"}, {"name": "bert/encoder/layer_13/output/bottleneck/FakeLayerNorm/gamma", "shape": [256], "dtype": "float32"}, {"name": "bert/encoder/layer_13/output/bottleneck/FakeLayerNorm/beta", "shape": [256], "dtype": "float32"}, {"name": "bert/encoder/layer_14/output/bottleneck/FakeLayerNorm/gamma", "shape": [256], "dtype": "float32"}, {"name": "bert/encoder/layer_14/output/bottleneck/FakeLayerNorm/beta", "shape": [256], "dtype": "float32"}, {"name": "bert/encoder/layer_15/output/bottleneck/FakeLayerNorm/gamma", "shape": [256], "dtype": "float32"}, {"name": "bert/encoder/layer_15/output/bottleneck/FakeLayerNorm/beta", "shape": [256], "dtype": "float32"}, {"name": "bert/encoder/layer_16/output/bottleneck/FakeLayerNorm/gamma", "shape": [256], "dtype": "float32"}, {"name": "bert/encoder/layer_16/output/bottleneck/FakeLayerNorm/beta", "shape": [256], "dtype": "float32"}, {"name": "bert/encoder/layer_17/output/bottleneck/FakeLayerNorm/gamma", "shape": [256], "dtype": "float32"}, {"name": "bert/encoder/layer_17/output/bottleneck/FakeLayerNorm/beta", "shape": [256], "dtype": "float32"}, {"name": "bert/encoder/layer_18/output/bottleneck/FakeLayerNorm/gamma", "shape": [256], "dtype": "float32"}, {"name": "bert/encoder/layer_18/output/bottleneck/FakeLayerNorm/beta", "shape": [256], "dtype": "float32"}, {"name": "bert/encoder/layer_19/output/bottleneck/FakeLayerNorm/gamma", "shape": [256], "dtype": "float32"}, {"name": "bert/encoder/layer_19/output/bottleneck/FakeLayerNorm/beta", "shape": [256], "dtype": "float32"}, {"name": "bert/encoder/layer_20/output/bottleneck/FakeLayerNorm/gamma", "shape": [256], "dtype": "float32"}, {"name": "bert/encoder/layer_20/output/bottleneck/FakeLayerNorm/beta", "shape": [256], "dtype": "float32"}, {"name": "bert/encoder/layer_21/output/bottleneck/FakeLayerNorm/gamma", "shape": [256], "dtype": "float32"}, {"name": "bert/encoder/layer_21/output/bottleneck/FakeLayerNorm/beta", "shape": [256], "dtype": "float32"}, {"name": "bert/encoder/layer_22/output/bottleneck/FakeLayerNorm/gamma", "shape": [256], "dtype": "float32"}, {"name": "bert/encoder/layer_22/output/bottleneck/FakeLayerNorm/beta", "shape": [256], "dtype": "float32"}, {"name": "bert/encoder/layer_23/output/bottleneck/FakeLayerNorm/gamma", "shape": [256], "dtype": "float32"}, {"name": "bert/encoder/layer_23/output/bottleneck/FakeLayerNorm/beta", "shape": [256], "dtype": "float32"}, {"name": "bert/pooler/strided_slice/stack", "shape": [3], "dtype": "int32"}, {"name": "bert/pooler/strided_slice/stack_1", "shape": [3], "dtype": "int32"}, {"name": "bert/pooler/strided_slice/stack_2", "shape": [3], "dtype": "int32"}, {"name": "output_weights", "shape": [2, 256], "dtype": "float32"}, {"name": "output_bias", "shape": [2], "dtype": "float32"}]}]}